models/checkpoint_critic1.pth (torch_old, 526941 bytes, 9 tensors)

fcs1.weight f4 [400, 24]
0	0x3e677083	0.22601514
1	0xbe51d1a3	-0.20490126
2	0xbc9dd5b5	-0.019266943
3	0x3d92a49d	0.07160304
4	0x3f5024b4	0.81306005
5	0x3f8204c0	1.01577
6	0xbf015b77	-0.5053019
7	0xbe428acd	-0.18998261
8	0xbd056e0e	-0.03257566
9	0xbeae5cce	-0.3405518
10	0xbde31ca7	-0.110894494
11	0x3f42bff1	0.7607413
12	0x3e12bb10	0.14329171
13	0x3edff46a	0.4374116
14	0x3e9002af	0.28127047
15	0xbe453d35	-0.1926163
16	0xbe3fdc8c	-0.18736476
17	0x3f4b540b	0.79425114
18	0xbec56295	-0.38551775
19	0xbe902e4a	-0.28160316
20	0xbfc400ab	-1.5312704
21	0x3f3b32fc	0.7312467
22	0xbf240031	-0.6406279
23	0x3f822eb0	1.0170498
24	0xbf771063	-0.9650938
25	0x3f920f46	1.1410911
26	0xbf3c8f7e	-0.7365645
27	0xbedda5d3	-0.43290576
28	0xbcc8349a	-0.024439145
29	0x3e6c0926	0.23050365
30	0xbedecaa3	-0.43513975
31	0x3de37667	0.11106568
32	0x3e6d5b89	0.23179449
33	0xbea62610	-0.32450914
34	0x3e2aa407	0.16664134
35	0xbfa4c539	-1.2872688
36	0x3d775780	0.06038618
37	0x3eb7920a	0.35853606
38	0xbfc0591f	-1.5027198
39	0xbeddd235	-0.43324438
40	0xbf36b781	-0.71373755
41	0x3f466062	0.7749082
42	0x3e9943d1	0.29934552
43	0x3d2eb367	0.04265156
44	0xbe43526e	-0.19074413
45	0xbeebee98	-0.4608047
46	0xbf496519	-0.7866989
47	0xbeefb50b	-0.46817812
48	0x3ebbbf99	0.36669615
49	0xbf0555d3	-0.5208408
50	0xbf3b39ac	-0.73134875
51	0x3fbcba5e	1.4744375
52	0xbe0da428	-0.13832152
53	0x3f5814a8	0.8440652
54	0xbe252c06	-0.16130075
55	0xbe832299	-0.25612333
56	0xc00ab52c	-2.1673079
57	0xbd2a382d	-0.04155748
58	0x3dd6073c	0.104505986
59	0x3f115725	0.56773597
60	0x3e9a0b07	0.30086538
61	0x3f0f5b5e	0.5599879
62	0x3f49c01d	0.78808767
63	0x3efca573	0.49344978
64	0x3ee5f64b	0.4491447
65	0x3e3a8fd6	0.18218932
66	0xbef0785b	-0.46966824
67	0x3e3f6cc8	0.1869384
68	0x3e836a4f	0.25667045
69	0xbebe5cb9	-0.37180117
70	0x3fc3e214	1.5303369
71	0x3f6ac78f	0.9171075
72	0xbe82330a	-0.25429565
73	0xbe19b336	-0.1500977
74	0x3dc233a9	0.0948251
75	0xbf1078f8	-0.56434584
76	0xbf01a311	-0.50639445
77	0x3ecf03c1	0.40432552
78	0x3ec7d032	0.39026028
79	0xbcb723ee	-0.022356
80	0x3d985d36	0.074396536
81	0x3e081cb8	0.13292205
82	0xbd6fcf4a	-0.058547296
83	0x3de0b1e5	0.10971431
84	0xbe88811b	-0.26661
85	0xbe87daa3	-0.26533994
86	0xbed4bfdf	-0.41552636
87	0x3d60936c	0.054828092
88	0xbe5aa5a4	-0.2135225
89	0x3e2d5393	0.16926412
90	0xbe34a9f1	-0.17642953
91	0xbeba41a8	-0.36378217
92	0x3ec41d0e	0.38303417
93	0x3e775da3	0.24156813
94	0x3d0322ed	0.03201573
95	0xbd72933d	-0.05922245
96	0x3f48e7d8	0.78478765
97	0xbf706332	-0.9390136
98	0xbe9ab54e	-0.3021645
99	0x3df98337	0.1218323
100	0xbe8a6fca	-0.27038413
101	0x3eed516c	0.46351182
102	0xbe1f5c51	-0.1556256
103	0x3d9b2d57	0.07577007
104	0xbf0e3b57	-0.55559295
105	0xbd6207a2	-0.05518306
106	0xbeabf8c0	-0.3358822
107	0x3f666a05	0.9000552
108	0x3e4e4d28	0.2014662
109	0xbe2db43b	-0.16963284
110	0xbdae8bd1	-0.085227616
111	0xbe118eb7	-0.14214598
112	0xbf36ddfe	-0.71432483
113	0x3f510646	0.816502
114	0x3e4e2051	0.20129515
115	0xbead1c74	-0.3381077
116	0x3be10777	0.006867345
117	0x3e610c49	0.21977343
118	0xbedc0808	-0.42974877
119	0x3edc821c	0.43068016
120	0x3f5c0ab3	0.85953826
121	0x3e30e449	0.17274584
122	0xbda64b46	-0.08119826
123	0x3cd2205e	0.0256502
124	0xbded3b6f	-0.11583602
125	0x3e30db4a	0.17271152
126	0x3eaa4b66	0.3326065
127	0x3d51f090	0.05125481
128	0xbf08294c	-0.53188014
129	0x3d786d00	0.060650826
130	0xbf1a1beb	-0.6019885
131	0xbe608800	-0.2192688
132	0x3d9c24ea	0.07624228
133	0x3e4380ee	0.19092152
134	0x3d2364e4	0.03989114
135	0x3efc96d3	0.4933382
136	0x3eba5e36	0.36400002
137	0xbe484fca	-0.19561687
138	0xbe9b200d	-0.3029789
139	0xbe8d3792	-0.2758146
140	0x3d876154	0.06610361
141	0xbe87ae11	-0.2649999
142	0xbecfa949	-0.40558842
143	0xbe64687f	-0.22305487
144	0xbef724d3	-0.48270282
145	0x3e8f0be9	0.27938774
146	0x3da8fdc5	0.08251528
147	0x3ecc9c30	0.39962912
148	0xbeea9f17	-0.458245
149	0x3ebd01cf	0.36915442
150	0x3b8b5c72	0.0042529637
151	0x3e281127	0.16412793
152	0xbd0f79c1	-0.035028223
153	0x3f0ea4cf	0.5572023
154	0x3d4efd46	0.05053451
155	0x3eeccf6a	0.46251994
156	0x3e54a4ef	0.20766042
157	0x3dad72ad	0.08469138
158	0x3e4cf9e7	0.20017205
159	0x39b8cd59	0.0003524821
160	0xbe77dba9	-0.24204887
161	0xbe74dcc8	-0.23912346
162	0x3cf48a08	0.029850975
163	0xbe6c6b5b	-0.23087828
164	0x3e64fd1a	0.22362176
165	0xbe4b14e9	-0.19832195
166	0xbe6261a9	-0.22107567
167	0xbda8d261	-0.082432516
168	0xbe9f8e88	-0.3116343
169	0x3b7dbdf1	0.003871795
170	0x3c671f83	0.014106634
171	0xbec55808	-0.38543725
172	0xbe493ab1	-0.19651295
173	0xbcad2163	-0.021134084
174	0x3d5c2771	0.05374855
175	0xbea10490	-0.31448793
176	0x3e9d96c1	0.3077908
177	0xbccbb1f6	-0.024865132
178	0x3e2a0aed	0.1660573
179	0xbd934505	-0.07190899
180	0x3e72bf77	0.2370585
181	0x3f38a7a6	0.7213081
182	0x3f0f2d9c	0.5592897
183	0x3cf25b1e	0.029584464
184	0xbf860a17	-1.0471829
185	0xbdf2060d	-0.1181756
186	0xbea1f79b	-0.3163422
187	0x3d454b07	0.048167255
188	0xbe046c1f	-0.1293187
189	0xbeb20338	-0.3476808
190	0xbfb66dd2	-1.4252264
191	0xbdc00522	-0.09375979
192	0x3e3b15a7	0.18269978
193	0x3d7586c3	0.059942972
194	0x3e1c4285	0.1525975
195	0x3e8248d9	0.25446203
196	0x3de8998e	0.11357413
197	0xbe932fcd	-0.28747407
198	0x3dc13e66	0.0943573
199	0xbc8f4582	-0.017489199
200	0xbf059dba	-0.52193797
201	0xbe39cae9	-0.1814381
202	0xbecbb0fa	-0.3978346
203	0x3e1108d9	0.14163531
204	0xbed35ef5	-0.41283384
205	0x3e8efb37	0.27926037
206	0xbf0c6253	-0.5483753
207	0xbe83c97d	-0.2573966
208	0x3e9f696f	0.31135127
209	0x3f43b8e8	0.7645402
210	0x3e24423e	0.16040894
211	0xbeb1d95c	-0.34736145
212	0xbf8a14ff	-1.0787657
213	0x3f8617b5	1.0475985
214	0x3dd0d5a1	0.101969965
215	0x3fa00efc	1.2504573
216	0x3fd087a8	1.6291399
217	0xbf0b0f6e	-0.5432042
218	0x3ee6533f	0.44985387
219	0xbf2f15ec	-0.68392825
220	0xbed8be42	-0.42332655
221	0x3f055ab5	0.5209153
222	0x3ecb55ab	0.39713797
223	0x3ea6cbb0	0.32577276
224	0xbf54816b	-0.83009976
225	0x3e48f1ca	0.19623485
226	0x3dc43fad	0.09582458
227	0x3eef583d	0.46747008
228	0x3dba4d04	0.09096721
229	0x3d36a32e	0.044589214
230	0x3c30e5a3	0.010796937
231	0xbdc97920	-0.09837556
232	0xbee276c3	-0.44231233
233	0xbc7ffd75	-0.015624394
234	0xbc9c5212	-0.019082103
235	0xbef5d243	-0.4801198
236	0xbd88030b	-0.066412054
237	0xbd943d39	-0.0723824
238	0xbe4fd728	-0.2029692
239	0x3e94b353	0.29043064
240	0x3e8e57d0	0.2780137
241	0xbe2127de	-0.15737864
242	0x3e6964b4	0.22792321
243	0x3d3ca109	0.046052013
244	0xbe16c509	-0.147236
245	0x3db1ee74	0.086880594
246	0x3e804e86	0.2505991
247	0x3e423a3b	0.18967526
248	0xbee4ac8d	-0.44662896
249	0x3ee36f4a	0.44420844
250	0xbd70c776	-0.05878397
251	0x3ede40df	0.43408868
252	0xbde37267	-0.11105805
253	0xbd506b68	-0.05088368
254	0xbc017385	-0.007901077
255	0xbe24641d	-0.16053815

fcs1.bias f4 [400]
0	0xbf0a5465	-0.54035026
1	0xbf5f2a85	-0.87174255
2	0xbf2930f9	-0.6609035
3	0xbf2fb5d4	-0.6863682
4	0xbf973430	-1.1812801
5	0xbed27c3d	-0.4111041
6	0xbec0fae9	-0.3769143
7	0xbe2d4dd3	-0.16924219
8	0xbf0b7fe2	-0.5449201
9	0xbfc9fd14	-1.5780358
10	0xbf005f50	-0.50145435
11	0xbeae86b0	-0.34087133
12	0xbf43b902	-0.76454175
13	0xbf7100d8	-0.9414191
14	0xbf062883	-0.52405566
15	0xbf339101	-0.70143133
16	0xbea7ff95	-0.3281218
17	0xbf1411be	-0.5783957
18	0xbf4d772a	-0.80259955
19	0xbee76da2	-0.4520083
20	0xbedf3e01	-0.43601993
21	0xbe6f208a	-0.23352256
22	0xbf47b5f2	-0.78012
23	0xbf6eaab6	-0.93229234
24	0xbf0de715	-0.5543073
25	0xbf98c440	-1.1934891
26	0x3e8b14cb	0.271643
27	0xbf0287c6	-0.50988424
28	0xbf80871e	-1.0041234
29	0xbf4b3aed	-0.7938679
30	0xc06471d9	-3.5694487
31	0xbefb5411	-0.49087575
32	0xbeccd2ad	-0.40004483
33	0xbf574868	-0.8409486
34	0xbfcea654	-1.6144509
35	0xbeeab49a	-0.45840913
36	0xbf430ecb	-0.7619445
37	0xbf8d3ef8	-1.1034842
38	0xbf2a7a95	-0.66593295
39	0xbf35b94e	-0.7098588
40	0xbf91ce4c	-1.1391082
41	0xbfc0e175	-1.5068804
42	0xbe92c700	-0.2866745
43	0xbf2c233a	-0.6724125
44	0xbf830565	-1.0236021
45	0xbea2b706	-0.3178026
46	0xbf150b7a	-0.58220637
47	0xbeeed129	-0.46643952
48	0x3e1792ea	0.14802137
49	0xbe88a73c	-0.2669009
50	0xbedeab98	-0.4349029
51	0xbf5f2e0a	-0.87179625
52	0xbec3267d	-0.38115302
53	0xbede2a24	-0.43391526
54	0xbf3ad8c8	-0.7298703
55	0xbf174c57	-0.5910086
56	0xbf9ff9b5	-1.249808
57	0xbf3483b5	-0.7051347
58	0xbfb7a8fe	-1.4348447
59	0xbf8842ea	-1.064542
60	0xbe9acc73	-0.30234107
61	0xbf94ec1c	-1.1634555
62	0xbf9a7d1c	-1.206943
63	0xbf500eb9	-0.81272465
64	0xbe9e011d	-0.30860224
65	0xbe8d08fa	-0.2754591
66	0xbeb3d02e	-0.35119766
67	0xbe994d04	-0.2994157
68	0xbfe26799	-1.7687865
69	0xbe93e6e8	-0.28887105
70	0xbeb39fd1	-0.35082868
71	0xbfc7fec8	-1.5624628
72	0xbe82573f	-0.25457188
73	0xbe871e3c	-0.26390254
74	0xbf77603f	-0.96631235
75	0xbf021639	-0.5081516
76	0xbf7e6f45	-0.99388534
77	0xbf13ab2f	-0.5768308
78	0xbf905558	-1.1276045
79	0xbf308c55	-0.6896413
80	0xbebb2f7a	-0.3655966
81	0xbf9171d0	-1.1362858
82	0xbe9cf64e	-0.30656666
83	0xbf18294f	-0.5943803
84	0xbf77a227	-0.967318
85	0xbeb76452	-0.35818726
86	0xbec2673c	-0.37969387
87	0xbf158a87	-0.584145
88	0xc001945d	-2.0246804
89	0xbe9541b5	-0.29151693
90	0xbf318bdb	-0.6935403
91	0xbf74f826	-0.95691144
92	0xbe834735	-0.25640264
93	0xbf22177b	-0.6331708
94	0x3dad4ac0	0.08461523
95	0xbf4cbdcf	-0.79977125
96	0xbf67c6b5	-0.9053758
97	0xbe6b33fd	-0.2296905
98	0xbe956de5	-0.29185405
99	0xbf41691b	-0.75551003
100	0xbea30158	-0.31836963
101	0xbefca2a6	-0.4934284
102	0xbf408ca3	-0.75214595
103	0xbeeffb1a	-0.46871263
104	0xbec02fa1	-0.37536338
105	0xbf8531e6	-1.0405853
106	0xbf283729	-0.6570917
107	0xbf934bed	-1.1507546
108	0xbf915114	-1.1352868
109	0xbf1af9e3	-0.60537547
110	0xbefa857d	-0.48929968
111	0xbee9c181	-0.45655444
112	0xbfa29848	-1.2702723
113	0xbf178aed	-0.5919636
114	0xbf87643c	-1.0577464
115	0xbf3afb4c	-0.730397
116	0xbeab5f8d	-0.33471337
117	0xbf9a88d3	-1.2073005
118	0xbf65b8d3	-0.89735144
119	0xbf502ac8	-0.8131528
120	0xbf62e480	-0.88629913
121	0xbf608bfa	-0.8771359
122	0xbf50e380	-0.8159714
123	0xbf90cf09	-1.1313182
124	0x3e373259	0.178903
125	0xbf479bc9	-0.77972084
126	0xbf0589ca	-0.52163374
127	0xbeded8d0	-0.4352479
128	0xbf26f078	-0.65210676
129	0xbf1274eb	-0.5720965
130	0xbf4810cd	-0.78150636
131	0xbf0a911c	-0.5412767
132	0xbfa445dd	-1.283382
133	0xbef3e046	-0.47632045
134	0xbea07f2c	-0.31347024
135	0xbf2acb4b	-0.6671645
136	0xbf88aa55	-1.0676981
137	0xbf1a59ad	-0.60293084
138	0xbf0611c2	-0.52370846
139	0xbf53d4c4	-0.8274653
140	0xbf820b6e	-1.0159738
141	0xbf5863f5	-0.8452752
142	0xbf13cb62	-0.5773221
143	0xbfbc135f	-1.4693412
144	0xbf50a76f	-0.81505483
145	0xbf6cfbea	-0.9257189
146	0xbcef9787	-0.029247059
147	0xbef81e14	-0.48460448
148	0xbf0f0f21	-0.5588246
149	0xbf7ea379	-0.9946819
150	0x3f938ead	1.1527916
151	0xbf3b3d86	-0.7314075
152	0xbf35b1a1	-0.70974165
153	0xbfd18ef4	-1.6371751
154	0xbfc321c7	-1.5244683
155	0xbed44f11	-0.41466573
156	0xbede5aea	-0.43428737
157	0xbf1419e9	-0.57852036
158	0xbeba9064	-0.36438286
159	0xbf58950c	-0.8460243
160	0xbe43c4c6	-0.19118032
161	0xbf44be88	-0.7685323
162	0xbf7222fc	-0.9458463
163	0xbf6b3a73	-0.9188606
164	0xbf135232	-0.57547295
165	0xbeaeda87	-0.34151098
166	0xbfb06a24	-1.3782392
167	0xbf4b377f	-0.79381555
168	0xbeb3efb0	-0.35143805
169	0xbee7ff53	-0.45311984
170	0xbfa8d4d8	-1.3189955
171	0xbf8b5410	-1.0885029
172	0xbed5a609	-0.41728237
173	0xbf1576b5	-0.5838426
174	0xbf26b2e0	-0.6511669
175	0xbf374d7a	-0.71602595
176	0x3e1cab76	0.15299782
177	0xbe9d046e	-0.30667442
178	0xbf7b400b	-0.98144597
179	0xbf083b09	-0.5321508
180	0xbe7eb408	-0.24873364
181	0xbfab36b5	-1.337607
182	0xbfd08f7e	-1.629379
183	0xbf782242	-0.96927273
184	0xbe9f02e7	-0.31056902
185	0xbf1fc609	-0.6241155
186	0xbf57fcca	-0.843701
187	0xbf2748b0	-0.6534529
188	0xbf1dee79	-0.61692005
189	0xbe99ec53	-0.30063114
190	0xbebb6c13	-0.36605892
191	0xbf36a8a4	-0.71351075
192	0xbfb4162a	-1.4069264
193	0xbf6ed493	-0.9329311
194	0xbf9352cd	-1.1509644
195	0xbf10b0ca	-0.5651976
196	0x3e866ba2	0.26253992
197	0xbf5c6805	-0.8609622
198	0xbe368548	-0.1782428
199	0xbe160700	-0.14651108
200	0xbf4f5151	-0.80983454
201	0xbf22e301	-0.6362763
202	0xbf7aa9b8	-0.9791522
203	0xbf157402	-0.5838014
204	0xbec4fad4	-0.38472617
205	0xbf86ff5f	-1.0546683
206	0xbe9633a3	-0.2933627
207	0xbdeeceab	-0.116605125
208	0xbed36c92	-0.4129377
209	0x3e9595eb	0.2921594
210	0xbf0bcdde	-0.54611003
211	0xbf5921e2	-0.84817326
212	0xbf6223ce	-0.88335884
213	0xbf8513ee	-1.0396707
214	0xbf34738b	-0.70488805
215	0xbf8ea11b	-1.1142915
216	0xbe9f2ea2	-0.31090266
217	0xbf265991	-0.6498042
218	0xbf7177f3	-0.94323653
219	0xbeac2bf5	-0.33627287
220	0xbf146f00	-0.5798187
221	0xbec4bcd3	-0.3842531
222	0xbf8d15d6	-1.1022289
223	0xbf1e6208	-0.61868334
224	0xbec5afe6	-0.38610762
225	0xbf6f3718	-0.9344344
226	0xbf57693a	-0.8414494
227	0xbed07725	-0.407159
228	0xbed34151	-0.4126077
229	0xbf41b0f1	-0.75660616
230	0xbf35898c	-0.70913005
231	0xbf9f7edc	-1.246059
232	0xbf1b9697	-0.60776657
233	0xbf7adcaf	-0.97992986
234	0xbec06ba7	-0.37582132
235	0xbf77bd6e	-0.9677342
236	0xbf0216f7	-0.5081629
237	0xbf92959e	-1.145191
238	0xbf10f806	-0.56628454
239	0xbf5b842d	-0.8574856
240	0x3e207c2e	0.15672371
241	0x3e87c5f3	0.2651821
242	0xbeb753b7	-0.35806057
243	0xbf7f5f9c	-0.99755263
244	0xbe9ac41f	-0.30227754
245	0xbf038624	-0.5137656
246	0xbf4b956a	-0.7952486
247	0xbf2de6f7	-0.6793055
248	0xbf7a9932	-0.9789001
249	0xbf08e087	-0.534676
250	0xbf73df6f	-0.9526281
251	0xbf52c985	-0.82338744
252	0xbf863e25	-1.0487715
253	0xbf01e596	-0.50740945
254	0xbf1a030d	-0.60160905
255	0xbf1d20ec	-0.6137836

fc2.weight f4 [300, 402]
0	0xbddfc8c2	-0.109269634
1	0x3f4e6464	0.80621934
2	0x3d33a826	0.04386153
3	0x3f1c0e4b	0.6095931
4	0x3f038388	0.51372576
5	0x3f07480c	0.5284431
6	0x3e55a74b	0.20864598
7	0xbe87a765	-0.264949
8	0x3e4d73c2	0.2006369
9	0x3f7e114d	0.9924515
10	0x3f203f08	0.6259618
11	0x3e782aee	0.24235126
12	0x3eff121f	0.49818513
13	0x3ea806e2	0.3281775
14	0x3efe4fd7	0.49670288
15	0x3f0602ed	0.52348214
16	0x3e039b88	0.12852299
17	0x3e0214c3	0.12703232
18	0x3f037a81	0.513588
19	0x3ed78a8f	0.420979
20	0x3f0fd0d2	0.5617801
21	0x3d8a7830	0.06761205
22	0xbe267e1b	-0.16259043
23	0x3f36fedd	0.7148264
24	0x3e42dcb2	0.19029501
25	0xbe58cc0b	-0.21171586
26	0xbec6aa31	-0.3880172
27	0xbdab28cf	-0.08357393
28	0x3faf6d09	1.370515
29	0x3f44515d	0.7668665
30	0x3f6fe847	0.937138
31	0xbc9c0f89	-0.019050376
32	0x3f203eac	0.6259563
33	0xbe3ef12f	-0.18646692
34	0x3f45b3bb	0.7722737
35	0x3c890857	0.01672761
36	0xbd67e712	-0.05661685
37	0x3ea86481	0.32889178
38	0x3dc659a7	0.096850686
39	0x3f5e7c9a	0.86908877
40	0x3eacafbd	0.33727828
41	0x3e9b6698	0.3035171
42	0x3e96a89d	0.29425517
43	0xbe00cb76	-0.12577614
44	0x3f5b3c0f	0.8563852
45	0x3e5f6b02	0.21818164
46	0x3f37e578	0.71834517
47	0xbd2cdae7	-0.04220095
48	0x3e2b45c2	0.16725829
49	0x3ebdea52	0.37092835
50	0x3ea92dc8	0.3304274
51	0xbe268d6a	-0.16264883
52	0xbe08a47d	-0.13343997
53	0x3cd03d78	0.025419936
54	0x3d84bdfe	0.06481551
55	0x3ea02783	0.31280145
56	0x3f13e7f6	0.5777582
57	0x3f1a9a1a	0.6039139
58	0x3f2a45cc	0.6651275
59	0x3f2d95e5	0.67806846
60	0xbe187455	-0.14888127
61	0x3f446e5c	0.76730895
62	0x3f697ab8	0.9120288
63	0x3e18c5a5	0.14919145
64	0x3f153596	0.5828489
65	0xbe9492c5	-0.29018226
66	0xbd7d0f83	-0.06178237
67	0x3eb876f8	0.36028266
68	0xbd74abd7	-0.05973419
69	0x3ecc90e9	0.39954308
70	0x3ead30bb	0.3382624
71	0x3d129d93	0.035794806
72	0xbccc6921	-0.024952473
73	0x3ea8cb3c	0.32967556
74	0x3e92dbaf	0.2868323
75	0xbe6d8f43	-0.23199181
76	0x3ebda715	0.37041536
77	0x3eb948f2	0.36188465
78	0x3eaf8d1a	0.3428734
79	0x3e983cce	0.2973389
80	0x3e853bd8	0.2602222
81	0x3ef82fc4	0.48473942
82	0x3eb606d9	0.355521
83	0x3e198be8	0.14994776
84	0x3ce80c0a	0.028326053
85	0x3edde8de	0.43341726
86	0x3edf890f	0.43659255
87	0x3f2ed624	0.682955
88	0x3f574cb4	0.84101415
89	0x3c944117	0.018097444
90	0x3f131136	0.57448137
91	0xbe3a7806	-0.18209848
92	0x3ecde6d4	0.4021517
93	0x3e8eb583	0.27872857
94	0xbd6b584d	-0.057457257
95	0x3e8486e6	0.2588417
96	0x3db2b713	0.08726325
97	0x3e816ce7	0.25278398
98	0x3e4fe0e6	0.20300636
99	0x3e1be34a	0.15223423
100	0xbf0a020d	-0.5390938
101	0x3e802ddd	0.2503499
102	0x3f0529d3	0.52016944
103	0x3f0435c2	0.5164453
104	0x3eb8d979	0.36103418
105	0x3e0aca0c	0.13553637
106	0x3e8ca88e	0.27472347
107	0x3f03164b	0.5120589
108	0x3eed1677	0.46306202
109	0xbe535ee2	-0.20641664
110	0x3d86f5a6	0.065898225
111	0x3e38f6e7	0.18062936
112	0xbdd950dc	-0.10611126
113	0x3eee2af3	0.46517143
114	0x3ef9fdf1	0.48826554
115	0x3ef79ec5	0.4836332
116	0x3e67dee0	0.22643614
117	0xbdf4c245	-0.119511165
118	0x3e667a40	0.22507572
119	0x3f140334	0.5781739
120	0xbc395121	-0.011310847
121	0x3da0acf4	0.07845488
122	0x3ef9d44e	0.48794788
123	0x3f25ed0d	0.64814836
124	0xbe7c5880	-0.24643135
125	0x3f4578bd	0.77137357
126	0xbed8f1af	-0.4237189
127	0x3ee48e08	0.4463961
128	0x3e4fb568	0.20284045
129	0x3f4ca036	0.7993196
130	0x3e3c97d8	0.18417299
131	0xbebb541a	-0.36587602
132	0x3f272408	0.65289354
133	0x3f104773	0.5635902
134	0x3eb833f8	0.3597715
135	0xbd6c8d1f	-0.05775177
136	0x3ed3eaa1	0.41389945
137	0x3edbb05c	0.4290799
138	0x3ea8387f	0.32855603
139	0x3eb285c5	0.34867683
140	0x3f144fd5	0.57934314
141	0x3e9d16f7	0.30681583
142	0x3e7a4154	0.24438983
143	0x3ee5e83b	0.4490374
144	0x3e924892	0.28570992
145	0xbe87f953	-0.26557407
146	0xbe2fcc90	-0.17167878
147	0x3ddd6228	0.108097374
148	0x3f261a88	0.64884233
149	0x3f500d45	0.8127025
150	0xbe8ca1d2	-0.2746721
151	0xbe5cfc8c	-0.21580714
152	0x3ed5ba85	0.41743866
153	0x3e61761e	0.22017714
154	0x3e9a2cd4	0.30112326
155	0x3dcae863	0.099076055
156	0x3f168f6b	0.5881259
157	0xbeb582b3	-0.35451278
158	0xbe356815	-0.17715485
159	0xbdae76a2	-0.08518721
160	0x3e8ceb8e	0.27523464
161	0xbf39366f	-0.72348684
162	0x3edb47c4	0.4282819
163	0x3e561894	0.20907813
164	0xbf07e408	-0.53082323
165	0x3e174f42	0.14776328
166	0xbdae1d28	-0.08501655
167	0x3efcb4bd	0.49356642
168	0x3e8c4a3f	0.27400395
169	0x3da826a3	0.08210494
170	0x3f3026ad	0.68809015
171	0x3f000939	0.5001407
172	0xbe5b4e93	-0.21416692
173	0x3e12ec61	0.14347984
174	0x3ee4493c	0.44587123
175	0x3edcf4c0	0.4315548
176	0xbe87fdb5	-0.2656075
177	0xbe82ae3b	-0.25523552
178	0xbc0c7ac2	-0.00857419
179	0xbf1f76a0	-0.6229038
180	0x3ec6b3c7	0.38809034
181	0x3eb4771b	0.3524712
182	0xbd424c3f	-0.047435995
183	0x3cd2d5ec	0.025736772
184	0xbdb5427b	-0.08850571
185	0x3f019032	0.5061065
186	0x3e97a45e	0.2961759
187	0x3de28829	0.11061127
188	0x3e9d0746	0.30669612
189	0x3dfd873f	0.12379312
190	0x3e2543f5	0.16139205
191	0x3e08598b	0.13315408
192	0xbd91cae1	-0.07118774
193	0xbea25e05	-0.31712356
194	0x3f21fa01	0.632721
195	0x3f43919a	0.76394045
196	0x3e2d9770	0.169523
197	0xbd8052ed	-0.06265817
198	0xbd932472	-0.07184686
199	0x3df22238	0.11822933
200	0x3ef2d903	0.47431192
201	0x3f2f0881	0.6837235
202	0x3e96989e	0.29413313
203	0x3f1c68c1	0.6109734
204	0x3ed48d87	0.41514227
205	0x3ee0adb6	0.4388253
206	0x3e865e8c	0.2624401
207	0xbe2b48dc	-0.16727012
208	0x3e70a75a	0.2350134
209	0x3e5743fb	0.21022026
210	0x3e306cf4	0.17229062
211	0xbedbd17b	-0.42933258
212	0xbe8be238	-0.2732103
213	0x3eac2661	0.3362303
214	0x3f69b21e	0.9128741
215	0xbd5246ad	-0.051336933
216	0x3ef49e6f	0.47777125
217	0x3e6faeef	0.23406576
218	0x3ea6f4d3	0.3260866
219	0x3ee9f674	0.4569584
220	0x3e614549	0.21999086
221	0x3effe9ef	0.49983165
222	0x3ea465f8	0.32109046
223	0x3e66cf7a	0.22540084
224	0x3ede9e27	0.43480036
225	0xbe860e0b	-0.2618259
226	0x3e501f44	0.20324427
227	0xbecab95b	-0.3959454
228	0x3ee564dc	0.44803512
229	0x3e87515d	0.26429263
230	0x3dc42e6b	0.09579166
231	0x3f099d66	0.53755796
232	0x3efd675d	0.49492922
233	0xbd11d411	-0.035602633
234	0x3ed372e9	0.41298607
235	0x3e7dd169	0.24786915
236	0x3f1f85ba	0.62313426
237	0x3f3c4d8f	0.73555845
238	0x3de0b43a	0.109718755
239	0xbea65baf	-0.32491824
240	0xbd4d8ea1	-0.05018485
241	0x3e66bc7a	0.22532836
242	0xbdd8a734	-0.105787665
243	0x3e98d8aa	0.29852802
244	0x3f258f75	0.64672023
245	0x3f0a2ea2	0.53977406
246	0x3ecddd0c	0.40207708
247	0x3eba630f	0.364037
248	0x3dca7610	0.098858
249	0x3ef86905	0.48517624
250	0x3f1647ec	0.58703494
251	0xbd943e54	-0.07238451
252	0x3e2f896e	0.17142269
253	0xbe1204ad	-0.14259596
254	0x3ee6b350	0.4505868
255	0x3ef279c2	0.4735852

fc2.bias f4 [300]
0	0xbedca74c	-0.43096387
1	0xbec03a0e	-0.37544292
2	0xbeba1b75	-0.36349073
3	0xbe3ed481	-0.18635751
4	0xbedf3d89	-0.43601635
5	0xbeb4bc06	-0.352997
6	0xbf070a52	-0.5275012
7	0xbe16ff28	-0.14745772
8	0xbef708b1	-0.4824882
9	0xbeda5bc2	-0.4264813
10	0xbee91ff7	-0.455322
11	0xbe86f29b	-0.26356968
12	0xbec68b01	-0.38777927
13	0xbefcc38c	-0.4936794
14	0xbefc9902	-0.49335486
15	0xbe989a87	-0.29805395
16	0xbea7cca1	-0.32773307
17	0xbe803161	-0.25037673
18	0xbe461fb8	-0.19348037
19	0xbedd15c1	-0.4318066
20	0xbe990b31	-0.2989135
21	0xbea1bfd7	-0.31591675
22	0xbefadb4d	-0.48995438
23	0xbf05c762	-0.5225736
24	0xbe7a462b	-0.2444083
25	0xbf1014fc	-0.5628202
26	0xbea01349	-0.31264713
27	0x3dd3a738	0.10334629
28	0xbe2f1ed1	-0.171016
29	0xbe2bfec6	-0.16796407
30	0xbea6cfa2	-0.32580286
31	0xbd134671	-0.03595585
32	0xbe7c77d8	-0.24655092
33	0xbccdfaae	-0.025143947
34	0xbd6aae8c	-0.057295367
35	0xbf1d3da0	-0.6142216
36	0xbed40805	-0.41412368
37	0xbef44175	-0.4770619
38	0xbf0c54cb	-0.54816884
39	0xbeaf41ee	-0.34229988
40	0xbea15bf7	-0.31515476
41	0xbe8478da	-0.25873452
42	0xbe8145db	-0.25248608
43	0xbe77927f	-0.24176978
44	0xbe641eef	-0.22277425
45	0xbecc19fb	-0.39863572
46	0x3f0ca75c	0.5494287
47	0xbe1eab92	-0.15495136
48	0xbed6991e	-0.41913694
49	0xbe629c9f	-0.22130059
50	0xbe2f3425	-0.17109735
51	0xbecd7c4d	-0.40133896
52	0xbe639a52	-0.22226837
53	0xbf009bbb	-0.50237626
54	0xbead0d76	-0.33799332
55	0xbee16d72	-0.44028813
56	0x3c6107a7	0.013734735
57	0xbea7ca99	-0.32771757
58	0xbe7256f8	-0.23665988
59	0xbe80297a	-0.25031644
60	0xbeb8867e	-0.3604011
61	0xbf05a962	-0.5221158
62	0xbe83103a	-0.25598317
63	0xbdf54a4c	-0.11977062
64	0xbe89bd9d	-0.26902476
65	0xbe566dd9	-0.20940341
66	0xbec66543	-0.38749132
67	0xbebed163	-0.37269124
68	0x3e1d4a98	0.15360487
69	0xbeb6ab7d	-0.3567771
70	0xbedead0b	-0.43491396
71	0xbed242a7	-0.41066477
72	0xbea30f22	-0.31847483
73	0xbe75e384	-0.24012572
74	0xbeba2acc	-0.36360776
75	0xbf18c737	-0.5967898
76	0xbe59c10d	-0.2126505
77	0xbe77a2c6	-0.24183187
78	0xbea2d0e8	-0.31800008
79	0xbeba2a76	-0.3636052
80	0xbf265d94	-0.6498654
81	0xbdb71672	-0.08939828
82	0xbec2109c	-0.37903297
83	0xbf0220ea	-0.5083147
84	0xbeb6c7f6	-0.35699433
85	0xbec77be4	-0.3896171
86	0xbee2bc0d	-0.44284096
87	0xbdbcfa6f	-0.09227454
88	0xbe750e0f	-0.23931144
89	0xbe8f75d8	-0.28019595
90	0xbf0a7f5a	-0.54100573
91	0xbd92429a	-0.071416095
92	0xbe75777b	-0.2397136
93	0xbf3e79ad	-0.7440441
94	0xbead66dc	-0.33867538
95	0xbea67060	-0.3250761
96	0xbea0a552	-0.3137613
97	0xbf1c2a7d	-0.6100233
98	0xbe54a1a4	-0.20764786
99	0xbe8257ce	-0.25457615
100	0xbf8831b3	-1.0640167
101	0xbe9c72df	-0.3055639
102	0xbe689144	-0.22711664
103	0xbeb8c11f	-0.3608484
104	0xbed69843	-0.4191304
105	0xbeded812	-0.43524224
106	0xbe749047	-0.23883162
107	0xbea50739	-0.32232073
108	0xbedd9456	-0.43277234
109	0xbe12b79b	-0.14327852
110	0xbedebfa2	-0.4350558
111	0xbebea54d	-0.3723549
112	0xbe7949d9	-0.24344577
113	0xbebc7953	-0.36811313
114	0xbe592868	-0.2120682
115	0xbebbfeb2	-0.36717755
116	0xbfa08716	-1.2541225
117	0xbf19cd02	-0.6007844
118	0xbecbe2be	-0.39821428
119	0xbefea430	-0.4973464
120	0xbee8becf	-0.45458075
121	0xbe47eb49	-0.19523348
122	0xbe4bf22b	-0.19916598
123	0xbf2bec32	-0.6715728
124	0xbf4ed5cb	-0.8079497
125	0xbdad7dd0	-0.084712625
126	0xbee8f7bc	-0.45501506
127	0xbeab7752	-0.33489472
128	0xbf81ac07	-1.0130624
129	0xbe7669ba	-0.24063769
130	0xbf084a39	-0.53238255
131	0xbe0f56b0	-0.13997912
132	0xbecd63e6	-0.4011528
133	0xbe9ec4ba	-0.31009465
134	0xbe8b89ee	-0.2725367
135	0xbecdef0a	-0.40221435
136	0xbebc087b	-0.3672522
137	0xbefaf446	-0.4901449
138	0xbee43d1d	-0.44577876
139	0xbef71201	-0.48255923
140	0xbf284801	-0.6573487
141	0xbec99e29	-0.3937848
142	0xbe088412	-0.13331631
143	0xbea763d0	-0.32693338
144	0xbee63014	-0.44958556
145	0xbe4d3e87	-0.20043384
146	0xbe823d1c	-0.25437248
147	0xbeea32bd	-0.45741835
148	0xbed6f0c1	-0.41980556
149	0xbf0fde69	-0.56198746
150	0xbedaf012	-0.42761284
151	0xbe4f644d	-0.20253105
152	0xbe78bbba	-0.24290362
153	0xbefeea17	-0.4978797
154	0xbeb2be61	-0.34910873
155	0xbedce880	-0.43146133
156	0xbee42831	-0.44561914
157	0xbeb8d5e7	-0.36100695
158	0xbe37f325	-0.17963846
159	0xbf06f5fd	-0.527191
160	0xbf164a10	-0.5870676
161	0xbed768b9	-0.42072085
162	0xbf37a7cc	-0.7174041
163	0xbe7b4eb9	-0.24541749
164	0xbed137f6	-0.40863007
165	0xbe573154	-0.21014911
166	0xbf111c56	-0.5668386
167	0xbe1254d1	-0.14290167
168	0xbef8773a	-0.48528463
169	0xbee72db1	-0.45152047
170	0xbf127f78	-0.5722575
171	0xbe9cc370	-0.30617857
172	0xbe96f4de	-0.29483694
173	0xbeaf3e63	-0.34227285
174	0xbec8beb3	-0.39207992
175	0xbea9e784	-0.33184445
176	0xbf094277	-0.5361704
177	0xbeb35228	-0.35023618
178	0x3deff84c	0.11717281
179	0xbea484a1	-0.32132438
180	0xbe82048f	-0.25394103
181	0xbe5e3f11	-0.21703745
182	0xbead2f94	-0.33825362
183	0xbeb3cc4d	-0.35116807
184	0xbec7ccab	-0.39023337
185	0xbef9768f	-0.48723266
186	0xbe7d9ad6	-0.24766096
187	0xbef930fd	-0.48670188
188	0xbf5b4ab6	-0.85660875
189	0xbfa08caa	-1.2542927
190	0xbac2d64f	-0.0014864894
191	0xbe422733	-0.18960266
192	0xbed79212	-0.4210363
193	0xbe80e407	-0.2517397
194	0xbeb087e1	-0.34478667
195	0xbe85677e	-0.2605552
196	0xbed3e794	-0.41387618
197	0x3e601d9e	0.21886298
198	0xbd388922	-0.045052655
199	0xbfadc7ab	-1.3576559
200	0x3da448b1	0.08021677
201	0xbef3d43a	-0.47622854
202	0xbecafc96	-0.39645833
203	0xbead22ab	-0.33815512
204	0xbeeaeabf	-0.45882222
205	0xbe5a650f	-0.21327613
206	0xbeb126cb	-0.3459991
207	0xbebdfb47	-0.37105772
208	0xbf09f7a0	-0.5389347
209	0xbe890b94	-0.26766646
210	0xbedf32f2	-0.43593556
211	0xbe93968c	-0.28825796
212	0xbed84b82	-0.42245108
213	0xbdce0d84	-0.10061172
214	0xbf60467e	-0.8760756
215	0xbe8e35bf	-0.2777538
216	0xbe9f0458	-0.31058002
217	0xbe96f3d6	-0.29482907
218	0xbead9925	-0.33905903
219	0xbe96955f	-0.29410836
220	0xbf06fb2d	-0.52727014
221	0xbedf7017	-0.43640205
222	0xbef299f1	-0.47383073
223	0xbe4bf2ba	-0.19916812
224	0xbf02e150	-0.5112505
225	0xbe682544	-0.22670466
226	0xbcf0ad39	-0.029379474
227	0xbec8860d	-0.39164773
228	0xbe4814ff	-0.1953926
229	0xbed83296	-0.42226094
230	0xbe25aa51	-0.16178252
231	0xbe18c0d2	-0.14917305
232	0xbec996bd	-0.39372817
233	0xbeb8f1b7	-0.36121914
234	0xbe5731be	-0.21015069
235	0xbe3dea2f	-0.18546365
236	0xbed752c0	-0.4205532
237	0xbe81c99f	-0.25349137
238	0xbe802c80	-0.2503395
239	0xbe7657ea	-0.24056974
240	0xbe80552f	-0.2506499
241	0xbe27773b	-0.16354077
242	0xbeacabf3	-0.33724937
243	0xbebb6d5a	-0.36606866
244	0xbe99c4e2	-0.30033022
245	0xbf0328bf	-0.5123405
246	0xbebce96b	-0.36896834
247	0xbf027c55	-0.50970966
248	0xbeced597	-0.4039733
249	0xbec03355	-0.37539163
250	0xbe826b5c	-0.25472534
251	0xbebedf16	-0.37279576
252	0xbeaf278f	-0.34209868
253	0xbe99b1f6	-0.30018586
254	0xbe9e8d13	-0.30967006
255	0xbe92ee82	-0.28697592

fc3.weight f4 [1, 300]
0	0x3a864ec1	0.0010246859
1	0x3b6a98aa	0.0035796561
2	0x3db228c9	0.086991854
3	0x3cb4348e	0.021997716
4	0xbb9b7ffa	-0.0047454806
5	0xbb4e76e9	-0.0031503981
6	0x3c7f86b0	0.015596077
7	0x3b84d7e8	0.0040540583
8	0x3ba9cdd0	0.0051820055
9	0x3ae442eb	0.0017414963
10	0x3d89808c	0.067139715
11	0xbcec149f	-0.028818427
12	0x3b72d91f	0.0037055684
13	0x3cdb42cb	0.026765248
14	0x3bc2fcb6	0.0059505356
15	0x3cd00882	0.025394682
16	0x3bd3d439	0.006464508
17	0x3cd0b3c1	0.025476338
18	0x3c200bcf	0.00976844
19	0xbcf6f62e	-0.030146684
20	0xbc83673e	-0.01604044
21	0xbd0e95fe	-0.034811012
22	0x3c124b87	0.00892914
23	0xbd6fa542	-0.05850721
24	0xbd0bd2ee	-0.034136705
25	0xbcafc2bc	-0.021455161
26	0x3c214108	0.009842165
27	0x3bce8f93	0.0063037365
28	0xba0d0c90	-0.0005380595
29	0xbda0328f	-0.07822143
30	0x3b80ad1f	0.0039268876
31	0x3d1abf63	0.037780177
32	0x3cc6ed6d	0.024283135
33	0x3b4c6f91	0.0031194428
34	0xbd3b2d23	-0.045697343
35	0xbcb33863	-0.021877473
36	0xbc07f874	-0.008298982
37	0x3c1c6d0a	0.009547481
38	0xbd1c8d4b	-0.038220685
39	0x3b2bb5f8	0.002620099
40	0xbb9797cd	-0.0046262504
41	0xbbe50e21	-0.0069902097
42	0x3a627302	0.00086383533
43	0x3b3e073d	0.0028996014
44	0xba9e75a3	-0.0012089502
45	0x3b00f87b	0.0019679356
46	0x3d4256d5	0.04744609
47	0x3d5d34e8	0.054005533
48	0xbcaeb0e2	-0.021324579
49	0xb9b15312	-0.00033821963
50	0x3bb22ce3	0.00543748
51	0xbbaf1922	-0.0053435722
52	0x38898b36	6.558599e-05
53	0xbd1b3084	-0.037888065
54	0xbb75687a	-0.0037446306
55	0x3dae0323	0.08496692
56	0x3d22ceef	0.03974813
57	0x3b53e0d4	0.0032330053
58	0x3c96d77b	0.018413296
59	0x3b87ca45	0.0041439855
60	0xbb008702	-0.001961172
61	0x3c53509e	0.012897639
62	0x3c3f6086	0.011680728
63	0xbb13e755	-0.0022568305
64	0x3a2ac602	0.0006514491
65	0x3b54c479	0.003246574
66	0x3c15034e	0.009095026
67	0xbc394a39	-0.0113092
68	0x3b975f72	0.0046195323
69	0x3b695c10	0.0035607852
70	0xbb2d4cce	-0.0026443484
71	0x3adce2a2	0.001685221
72	0x3c69c63a	0.014268452
73	0x39155d00	0.00014244393
74	0xbc9b206f	-0.018936364
75	0x3cbf071c	0.02331882
76	0x3b5f5903	0.0034080155
77	0x3b9b1f9a	0.004733992
78	0x3c9e8b73	0.019353604
79	0x3bdc2cfa	0.006719229
80	0xbcca5523	-0.0246988
81	0x3c70efca	0.014705608
82	0x3c3d5f6b	0.011558394
83	0xbb43697a	-0.0029817508
84	0xbc0b6921	-0.008508951
85	0xbcca94a8	-0.024729088
86	0x3bbac92c	0.005700251
87	0x3d1c2a5d	0.03812634
88	0x3c36239e	0.01111689
89	0x3c821a8b	0.015881797
90	0x3c357512	0.011075275
91	0x394bbbd0	0.00019429554
92	0xbd9e6bd8	-0.07735413
93	0xbd4b5cce	-0.049649052
94	0x3b8ffa4e	0.0043938523
95	0x3c24fc14	0.010069866
96	0x3bd065b2	0.0063597793
97	0xba9a9193	-0.0011792652
98	0x3d2e845a	0.04260669
99	0x3d940b77	0.07228749
100	0xbdb9dfbd	-0.09075878
101	0x3ea57120	0.3231287
102	0xbc977683	-0.018489128
103	0x3d7961b9	0.06088421
104	0x3d68cfb9	0.056838725
105	0xbbada461	-0.0052991365
106	0x3b82d557	0.0039927172
107	0xbd3abe01	-0.045591358
108	0x3e224df6	0.15850052
109	0xbcf29c40	-0.029615521
110	0xbaaeffb2	-0.001335135
111	0x3bdfe452	0.006832638
112	0xba2fda47	-0.0006708246
113	0x3b89cbd9	0.0042052087
114	0xbc448f20	-0.011997014
115	0x3bcd973a	0.006274131
116	0xbeffbae4	-0.49947274
117	0xbd3a7e6c	-0.04553072
118	0xbc5941ec	-0.013260346
119	0x3bff725f	0.0077956165
120	0x3a0e9dbe	0.00054403755
121	0x3ba345a4	0.004982667
122	0xbc67a05d	-0.014137355
123	0xbc9f80fc	-0.019470684
124	0xbd89cbd6	-0.06728332
125	0x3cdb8c85	0.026800403
126	0x3be1b808	0.0068883933
127	0x3bb14afd	0.0054105506
128	0xbda0bc6e	-0.0784844
129	0x3dd7e4be	0.10541676
130	0x3c1f0460	0.009705633
131	0x3c30926b	0.010777096
132	0x3ae970d5	0.0017810116
133	0xbbbe52a7	-0.005808193
134	0xbd2a8a99	-0.041636083
135	0x3c94c1f3	0.018158888
136	0xb9b11108	-0.0003377276
137	0xbbb9fbac	-0.0056757536
138	0x3b0ff734	0.0021967413
139	0x3c3444ed	0.011002761
140	0xbda39b39	-0.07988591
141	0x3b478309	0.0030443093
142	0x3c37b019	0.011211419
143	0xbbed5811	-0.0072431643
144	0xbb5f1859	-0.0034041612
145	0x3b17413f	0.0023079661
146	0x3c12f879	0.008970373
147	0xbca032fb	-0.01955556
148	0xbc18530b	-0.009297143
149	0x3bf600be	0.0075074127
150	0xbd248f44	-0.04017569
151	0x3c0f82eb	0.008759241
152	0x3c71791d	0.014738348
153	0x3ce93c15	0.028471032
154	0xbbba7662	-0.005690382
155	0x3c20e8f3	0.009821164
156	0x3cb88cd6	0.022528093
157	0x3b407aa0	0.0029369965
158	0x39a83dde	0.00032089552
159	0x3c03f139	0.008053117
160	0x3c76ab1f	0.015055447
161	0x3c81c14d	0.015839243
162	0x3c50641c	0.01271918
163	0x3b5fee31	0.0034169073
164	0x3b891c59	0.0041842875
165	0x3ec460e0	0.3835516
166	0xbc8ed24f	-0.017434267
167	0xbbf65a3c	-0.007518081
168	0x3c1368fb	0.008997197
169	0xbc8ddcda	-0.017317224
170	0x3b9b5b78	0.0047411285
171	0x3c2873ed	0.010281545
172	0x3cf7bf93	0.030242717
173	0xbc961210	-0.01831916
174	0xbcc8833b	-0.024476638
175	0xbb59b966	-0.0033222078
176	0x3d803a88	0.06261164
177	0x3b74f52f	0.0037377586
178	0x3d71fb2b	0.059077423
179	0xbb8b1104	-0.004243972
180	0x3eb90c6a	0.36142284
181	0xb681d806	-3.869648e-06
182	0x3c4efb92	0.012633221
183	0xbd2a6294	-0.041597918
184	0x3b8a9667	0.004229355
185	0xbd2372a7	-0.039904263
186	0x3a9015af	0.001099279
187	0xbc613427	-0.013745344
188	0xbd8a8af3	-0.06764784
189	0xbd8f6de8	-0.07003385
190	0xbbd9ca5b	-0.006646437
191	0xbbf1fd87	-0.007384959
192	0x3b190f30	0.0023355
193	0xb9820294	-0.00024797453
194	0x3b0eec55	0.0021808345
195	0x3b0fbf7b	0.00219342
196	0x3cde33c1	0.027124288
197	0xbccbfeae	-0.024901714
198	0x3b8d4a20	0.004311815
199	0xbebfc511	-0.37455037
200	0x3bb17468	0.005415488
201	0x3c637f3f	0.013885318
202	0x3ab9c6a9	0.0014173585
203	0x3ca7c65e	0.020480331
204	0x3a2eb98d	0.00066652225
205	0x39ba435b	0.00035526868
206	0x3c5d5e3f	0.01351124
207	0x3cc38a33	0.02386961
208	0x3bd7c6f7	0.0065849978
209	0x3c04f4ca	0.008115003
210	0xbd01313c	-0.031541094
211	0x3c117e10	0.008880153
212	0xbbdb9480	-0.006701052
213	0x3c0f8ca3	0.008761558
214	0xbcb1732f	-0.02166137
215	0xbc213cb6	-0.009841135
216	0x3cfbc45d	0.030733282
217	0x3badcb2c	0.005303761
218	0xbcbc379a	-0.022975732
219	0x3c948bdd	0.018133098
220	0x3c75d66b	0.0150047345
221	0x3ad2e492	0.0016089848
222	0x3da53122	0.08066012
223	0xbc1448b7	-0.00905054
224	0x3bf7f71d	0.0075673
225	0xbccd46ac	-0.025058113
226	0xbbe83012	-0.0070858086
227	0x3c9ea893	0.019367492
228	0xbb01ff0d	-0.001983586
229	0x3cbbbc4c	0.022916935
230	0x3d27b315	0.04094227
231	0x3a8bdad3	0.0010670073
232	0x3be09002	0.0068531046
233	0xbb58b76e	-0.0033068317
234	0x3e5836c9	0.21114649
235	0x3a2cb1fe	0.0006587802
236	0xbbaac5e4	-0.0052115787
237	0x3b1280b7	0.0022354552
238	0x3ac34456	0.0014897685
239	0x3c8093b3	0.015695428
240	0x3b90dad4	0.0044206176
241	0x3d85c32b	0.06531366
242	0x3b136e36	0.002249611
243	0x3b1c8058	0.002388021
244	0x3bad1fab	0.005283316
245	0x3ca66330	0.020310968
246	0xbc306edc	-0.010768618
247	0x3c0908de	0.0083639305
248	0xbd95fd43	-0.073236965
249	0x3c86084b	0.016361376
250	0x3bd152dc	0.0063880514
251	0xbc0d4bc6	-0.008624023
252	0x3c60b7b2	0.013715671
253	0x3c04ec5f	0.008112996
254	0x3d06bee5	0.032896895
255	0x3b063b99	0.00204823

bn.weight f4 [24]
0	0xbda8192b	-0.082079254
1	0x3e1e9d34	0.15489656
2	0x3d9805a0	0.07422948
3	0x3dd6087f	0.10450839
4	0x3ef14629	0.4712384
5	0x3e80e40f	0.25173995
6	0x3b67a940	0.0035348684
7	0x3ab81c16	0.0014046456
8	0x3ddeeaef	0.10884654
9	0xbc0388e9	-0.008028247
10	0xbccb784a	-0.024837632
11	0x3d949013	0.072540425
12	0xba2f740b	-0.0006693012
13	0x3e26a29a	0.16272965
14	0x3dc0944a	0.09403284
15	0xbc994b03	-0.018712526
16	0x3e662c7c	0.22477907
17	0x3e4c5d4a	0.19957462
18	0xbc1576f4	-0.009122599
19	0x3bf5ff22	0.007507221
20	0x3f13bd1a	0.5771042
21	0x3eca7dfa	0.39549237
22	0x3de41e9e	0.11138652
23	0x3e6050fa	0.2190589

bn.bias f4 [24]
0	0xbcd53bb3	-0.026029443
1	0xbbaff906	-0.005370262
2	0x3c8c71f0	0.017144173
3	0xbd7d5181	-0.061845306
4	0x3ec6ac96	0.38803548
5	0x3df27a54	0.118397385
6	0xba916f62	-0.0011095817
7	0xbc04ae45	-0.00809819
8	0x3d84c5eb	0.06483062
9	0xba14af54	-0.0005671878
10	0x3cb69fd0	0.022293001
11	0xbd3e42d5	-0.046450455
12	0xbaf567ff	-0.001872301
13	0x3e2d3e8c	0.16918391
14	0x3d18b835	0.03728505
15	0x3cfe2c98	0.031027123
16	0x3c304ecc	0.010760974
17	0xbe713edf	-0.2355914
18	0x3b183927	0.0023227425
19	0xbca82381	-0.020524742
20	0x3f190159	0.5976768
21	0x3f1deb52	0.61687195
22	0x3aee2ef0	0.0018171947
23	0xbdd6c73c	-0.1048722

bn.running_mean f4 [24]
0	0xc1078a6a	-8.4712925
1	0xbf45e9bf	-0.77309793
2	0x3f3d4b1a	0.7394272
3	0x3d9233cd	0.071387865
4	0x3bd582da	0.006515843
5	0x407a45b9	3.9105055
6	0x3f3d4b1a	0.7394272
7	0x3d9233cd	0.071387865
8	0xc10aa42a	-8.665079
9	0xbf46a7ae	-0.7759961
10	0x3f3301cf	0.69924635
11	0x3d2e9649	0.04262379
12	0xbc9be8c9	-0.019031899
13	0x407a6dd9	3.9129546
14	0x3f3301cf	0.69924635
15	0x3d2e9649	0.04262379
16	0xc10bb2cd	-8.731153
17	0xbf45c308	-0.7725072
18	0x3fb949cf	1.447565
19	0xbd5698e5	-0.052391905
20	0xbc9b262f	-0.018939106
21	0x4077bd20	3.8709183
22	0x3fb949cf	1.447565
23	0xbd5698e5	-0.052391905

bn.running_var f4 [24]
0	0x4134816f	11.2816
1	0x3f8febcc	1.1243834
2	0x43a9c3a7	339.52853
3	0x414275ea	12.153788
4	0x41e75444	28.916145
5	0x402cf2ab	2.7023113
6	0x43a9c3a7	339.52853
7	0x414275ea	12.153788
8	0x41229e77	10.163688
9	0x3f8f8efb	1.1215509
10	0x43a6c549	333.5413
11	0x414f9f41	12.97638
12	0x41f0d1da	30.102467
13	0x4034253a	2.8147721
14	0x43a6c549	333.5413
15	0x414f9f41	12.97638
16	0x411e44c9	9.891793
17	0x3f8e26a6	1.1105545
18	0x43af61ae	350.76312
19	0x415d037f	13.813354
20	0x41f8e1f2	31.110325
21	0x40465bec	3.0993605
22	0x43af61ae	350.76312
23	0x415d037f	13.813354
