models/checkpoint_actor0.pth (torch_old, 525742 bytes, 10 tensors)

fc1.weight f4 [400, 24]
0	0x3dd99176	0.106234476
1	0xbe47ecd3	-0.19523935
2	0x3e4921d4	0.1964181
3	0x3e9db0c3	0.3079892
4	0x3e1f7ab7	0.15574156
5	0xbe93eb8b	-0.28890643
6	0x3dd3462b	0.10316118
7	0x3e302786	0.17202577
8	0x3d68e2f6	0.05685707
9	0xbc9985a6	-0.018740486
10	0xbc1098bf	-0.00882548
11	0x3e12822e	0.14307472
12	0x3c219949	0.009863206
13	0xbe40192e	-0.18759605
14	0x3edf9a64	0.43672478
15	0x3dc9430f	0.098272435
16	0x3e462342	0.19349387
17	0x3ea4d76d	0.32195607
18	0x3e2180a8	0.15771735
19	0x3f1ca64b	0.6119124
20	0x3e947ecb	0.29002985
21	0xbd7da775	-0.061927278
22	0x3e6a9b44	0.22910792
23	0x3f1a1727	0.6019158
24	0x3c432325	0.011910235
25	0xbdba8328	-0.09107047
26	0x3db5d717	0.08878916
27	0xbc7a5519	-0.015279078
28	0x3f29c7bd	0.663204
29	0x3e9d116d	0.30677357
30	0x3d8b8369	0.06812174
31	0x3d578429	0.052616272
32	0x3d579ae4	0.05263795
33	0xbdd6b4df	-0.10483717
34	0x3cef1716	0.029185813
35	0x3e18946c	0.14900368
36	0xbd9911c3	-0.07474091
37	0xbd523e42	-0.051328905
38	0x3d852f74	0.065031916
39	0x3e08dc08	0.13365185
40	0x3dec3af5	0.11534683
41	0x3c1755d2	0.00923677
42	0x3c9c1a01	0.019055368
43	0xbe4132a4	-0.18866974
44	0xbf5c72eb	-0.8611285
45	0xbb875cb4	-0.004130924
46	0x3ab6c045	0.0013942799
47	0xbe74824d	-0.23877831
48	0xbd14174f	-0.03615504
49	0x3d5b56e2	0.053549655
50	0x3d505958	0.050866455
51	0x3e8aa225	0.2707683
52	0x3e2ff4c0	0.17183208
53	0xbeb3e5cf	-0.35136268
54	0x3dd4eede	0.10397123
55	0x3e2526c7	0.16128074
56	0xbdc6d308	-0.0970822
57	0xbd898e62	-0.067166105
58	0xbdfe30c9	-0.12411649
59	0x3e15b953	0.14621477
60	0xbe4ead03	-0.20183186
61	0xbeafe816	-0.34356755
62	0x3e6d9a23	0.2320333
63	0x3e1cdec3	0.15319352
64	0xbf5a0842	-0.8516885
65	0x3ea32394	0.3186308
66	0xbd9fad91	-0.07796777
67	0x3e916fe5	0.2840568
68	0xbdd8d9ea	-0.10588439
69	0xbecacc02	-0.3960877
70	0xbd91b70b	-0.07114991
71	0x3ea92a68	0.33040166
72	0xbc7b3e27	-0.0153346425
73	0x3ea64175	0.32471815
74	0x3e9866e2	0.29765993
75	0x3e8faa11	0.28059438
76	0x3f570019	0.83984524
77	0x3eff4a2c	0.49861276
78	0x3db2717f	0.08713054
79	0x3e557aab	0.20847575
80	0x3e58821d	0.21143384
81	0x3d4aec10	0.049541533
82	0x3e0da2b4	0.13831598
83	0xbc1837e4	-0.009290669
84	0x3ed3ba01	0.41352847
85	0x3cf2e664	0.029650874
86	0x3d745125	0.059647698
87	0xbcac0b98	-0.021001622
88	0x3d870af1	0.06593884
89	0x3f1268f5	0.571914
90	0xbd8073c0	-0.062720776
91	0xbe272ee9	-0.16326489
92	0x3f59b6ec	0.8504474
93	0xbd06f76e	-0.03295081
94	0xbafa1656	-0.0019080143
95	0xbe4e670a	-0.20156494
96	0x3d02af05	0.031905193
97	0x3ddfb616	0.10923402
98	0x3ea625e9	0.32450798
99	0x3e11cf8f	0.14239334
100	0x3b93cdb5	0.004510606
101	0xbe2c77b2	-0.16842535
102	0x3de39d23	0.11113956
103	0x3da5d6e6	0.08097629
104	0x3d6f26ed	0.058386732
105	0xbc17018d	-0.009216678
106	0x3d8d6ebe	0.06905888
107	0x3ce4f39e	0.027948197
108	0xbd146aa3	-0.03623451
109	0xbce5c177	-0.028046353
110	0x3e570209	0.2099687
111	0xbc4b9cd9	-0.012427532
112	0xbe5424a7	-0.20717107
113	0xbcb3d5ba	-0.021952499
114	0xbe51e162	-0.20496133
115	0xbe090be1	-0.13383438
116	0x3e4f254e	0.20229074
117	0xbf0b48aa	-0.5440775
118	0xbe141c3e	-0.14463899
119	0xbe069902	-0.13144305
120	0xbecfcf2a	-0.4058774
121	0x3e9a62db	0.30153546
122	0x3bd70505	0.0065618777
123	0x3ef05d95	0.46946397
124	0x3e9bd09a	0.30432588
125	0x3e28167d	0.16414829
126	0x3e5e9631	0.21736981
127	0x3edbb9b5	0.4291512
128	0xbe10ab59	-0.14127864
129	0x3f2291b6	0.6350359
130	0x3e1fbf84	0.15600401
131	0x3f1d3c24	0.6141989
132	0x3ee8601b	0.45385823
133	0x3ec1e386	0.378689
134	0xbe9401b7	-0.28907558
135	0x3f2e1f32	0.6801635
136	0xbeaa76fd	-0.33293906
137	0x3f2a3aa0	0.66495705
138	0x3e564e49	0.20928301
139	0x3f35c236	0.7099947
140	0x3f54f5b1	0.83187395
141	0x3e4a8dc0	0.19780636
142	0x3e9724e3	0.2952033
143	0x3f107514	0.5642865
144	0xbdcaeee5	-0.09908847
145	0xba53e435	-0.0008083017
146	0x3e9209c4	0.28523076
147	0x3c9da90a	0.019245643
148	0x3e1cc97e	0.15311238
149	0xbe9356cf	-0.28777167
150	0x3eb0c611	0.34526113
151	0xbc7b58c4	-0.015340988
152	0xbd4c16d1	-0.049826447
153	0xbd145ec0	-0.036223173
154	0x3e33a494	0.1754325
155	0xbd42ca5d	-0.04755627
156	0x3dd62fe3	0.104583524
157	0xbe64d87b	-0.22348206
158	0xbcaae18c	-0.020859502
159	0xbcd90e88	-0.026496187
160	0xbe9a150b	-0.3009418
161	0x3e0ce9cc	0.13761061
162	0xbdceedd9	-0.101039596
163	0xbc3ae0b3	-0.0114061115
164	0x3e6492b0	0.22321582
165	0xbea1f6ce	-0.3163361
166	0xbda48a71	-0.08034218
167	0xbd28d2e0	-0.04121673
168	0xbd495300	-0.04915142
169	0x3c11c13e	0.00889617
170	0xbf094eb8	-0.5363574
171	0xbec68d21	-0.38779548
172	0xbe72913e	-0.23688218
173	0x3d764292	0.06012208
174	0xbe367552	-0.17818192
175	0xbe917d57	-0.2841594
176	0xbeaba35a	-0.33523065
177	0x3e575ce0	0.21031523
178	0xbe337ae2	-0.17527345
179	0xbe938e1a	-0.28819352
180	0x3effaefd	0.49938193
181	0x3e81c023	0.253419
182	0xbee5eab2	-0.4490562
183	0xbe806735	-0.2507874
184	0x3e9b3249	0.30311802
185	0xbdeaa367	-0.11456948
186	0x3eb42210	0.35182238
187	0x3e8f1e23	0.2795268
188	0x3f1a92d0	0.6038027
189	0xbf6cfeb6	-0.9257616
190	0x3ec8063e	0.39067262
191	0x3e2662d7	0.16248642
192	0x3eb5ba80	0.3549385
193	0x3ea41dcd	0.32053986
194	0x3e458667	0.19289552
195	0x3b8fc203	0.0043871417
196	0xbea726d7	-0.3264682
197	0x3ec797ad	0.38982907
198	0x3e0a836b	0.13526694
199	0x3dde31f2	0.1084937
200	0x3c84eebe	0.016227122
201	0x3e3c2669	0.18374027
202	0xbe6e44b4	-0.23268396
203	0xbc2b5735	-0.0104578035
204	0x3e43ecc2	0.19133285
205	0x3d28dcec	0.041226313
206	0x3eb591cc	0.35462797
207	0xbcf13688	-0.029444948
208	0xbdbcac5d	-0.09212563
209	0x3e4e37c1	0.20138456
210	0x3cd40f38	0.025886163
211	0xbe9a1a10	-0.3009801
212	0x3f6120ae	0.8794049
213	0xbdc444c5	-0.09583429
214	0xbd496393	-0.049167227
215	0xbe654247	-0.22388564
216	0x3c293848	0.01032836
217	0xbdb76abb	-0.08955904
218	0x3e578b91	0.21049334
219	0x3e45b5ed	0.1930768
220	0x3f223047	0.63354915
221	0x3dab9c0e	0.083793744
222	0x3dc270ec	0.094941944
223	0x3e2bf6c1	0.16793348
224	0x3e9a4fec	0.301391
225	0xbdae4b33	-0.08510437
226	0x3e2fc4fe	0.1716499
227	0x3dd3554e	0.10319005
228	0x3d4b7fef	0.049682554
229	0xbd8e0d9f	-0.06936192
230	0x3df9c940	0.121965885
231	0x3d77160f	0.06032377
232	0xbd150cde	-0.036389224
233	0xbe56f91a	-0.20993462
234	0xbea358a2	-0.3190356
235	0xbe0dcd87	-0.13847934
236	0xbe132de3	-0.14372973
237	0x3f25ab2a	0.647143
238	0xbe44b10f	-0.19208167
239	0xbe0957bf	-0.13412379
240	0xbf049a18	-0.5179763
241	0x3a489dc8	0.0007652906
242	0x3dced798	0.10099715
243	0x3dc750d3	0.09732213
244	0xbc48dcbf	-0.012259661
245	0x3dc2a33b	0.0950379
246	0xbd9a69f2	-0.07539739
247	0x3ce0a123	0.027420586
248	0x3c71e477	0.014763943
249	0x3e76d975	0.24106391
250	0x3ece1c01	0.4025574
251	0x3e0b7dee	0.13622257
252	0x3e39f504	0.18159872
253	0x3d6d135e	0.057879798
254	0xbefa50a1	-0.4888964
255	0x3e48ac3a	0.19596949

fc1.bias f4 [400]
0	0xbe9f09b3	-0.31062087
1	0xbe0932de	-0.1339831
2	0x3e001311	0.12507273
3	0xbec1a433	-0.37820587
4	0xbf2cb6f5	-0.6746667
5	0xbde3637c	-0.111029595
6	0xbe997d42	-0.29978377
7	0x3f1efd46	0.62105215
8	0xbe084862	-0.13308862
9	0xbebf9b6b	-0.37423262
10	0x3cd150c9	0.025551217
11	0xbe70cb84	-0.23515135
12	0xbe6dc786	-0.23220643
13	0x3e9655cc	0.29362333
14	0xbf23960f	-0.63900846
15	0x3eb43527	0.35196802
16	0xbeaa86a1	-0.3330584
17	0xbf0bc97b	-0.5460431
18	0xbf020de1	-0.5080243
19	0xbe8a71d9	-0.27039984
20	0xbf0d5530	-0.5520811
21	0xbe9cde47	-0.30638334
22	0xbeaf1a24	-0.3419963
23	0xbee7eefd	-0.4529952
24	0xbe731863	-0.23739772
25	0xbec47345	-0.38369194
26	0xbd9d4073	-0.07678308
27	0xbeab170a	-0.33416015
28	0xbedea38b	-0.43484148
29	0xbd09925a	-0.033586837
30	0xbe87c4c0	-0.26517296
31	0xbeac4c1e	-0.33651823
32	0xbe2bbf9a	-0.16772309
33	0xbe8fed19	-0.2811058
34	0xbf22e110	-0.6362467
35	0xbee4086c	-0.44537675
36	0x3d3b30c2	0.045700796
37	0xbf0d064c	-0.55087733
38	0xbe003712	-0.12521008
39	0xbea7d782	-0.32781607
40	0xbe5dab33	-0.21647339
41	0xbea1f500	-0.31632233
42	0xbcfd4dba	-0.030920852
43	0xbe21a38a	-0.15785041
44	0xbec12a7b	-0.37727723
45	0xbea316c7	-0.31853315
46	0xbf23d772	-0.6400062
47	0xbf0e75a2	-0.55648243
48	0xbf05de2f	-0.5229215
49	0xbef96189	-0.48707226
50	0x3da91d3d	0.0825753
51	0xbf03f803	-0.5155031
52	0xbe082929	-0.13296951
53	0xbea509ee	-0.32234138
54	0xbe65dff5	-0.22448714
55	0xbeda9ce9	-0.42697838
56	0xbec4b982	-0.3842278
57	0xbee1edc3	-0.4412671
58	0xbe559fb0	-0.20861697
59	0x3db8c70e	0.09022342
60	0xbeb56e4a	-0.35435706
61	0xbf2b3891	-0.6688319
62	0xbe84891b	-0.25885853
63	0xbedbb5c7	-0.42912123
64	0xbf2a0427	-0.66412586
65	0xbca79cd5	-0.020460526
66	0xbe0db21b	-0.13837473
67	0xbde5ca38	-0.11220211
68	0xbed89b1d	-0.42305842
69	0x3e611c07	0.21983348
70	0xbe5941fa	-0.21216574
71	0x3ea66d5d	0.32505313
72	0xbd5fba3c	-0.054620966
73	0xbe231676	-0.15926537
74	0xbecc61f7	-0.3991849
75	0xbe0972cf	-0.13422702
76	0xbe54335e	-0.2072272
77	0xbd8fea20	-0.07027078
78	0xbe9bb932	-0.3041473
79	0xbd091a83	-0.03347255
80	0x3e9f1fb0	0.31078863
81	0xbe913db5	-0.2836739
82	0xbe87453e	-0.26420015
83	0xbe3ab295	-0.18232186
84	0xbe37c7fb	-0.1794738
85	0xbe89c8ec	-0.26911104
86	0xbea0a4b3	-0.31375656
87	0xbe858e2b	-0.26085028
88	0xbed72160	-0.4201765
89	0x3e3bd70e	0.18343756
90	0xbe74f71c	-0.2392239
91	0xbc903c15	-0.017606774
92	0xbe11a5b8	-0.14223373
93	0xbea80644	-0.3281728
94	0xbef702c9	-0.48244312
95	0xbe3e4ce7	-0.18584023
96	0x3e275dd5	0.16344388
97	0xbe68c98a	-0.22733131
98	0xbd0c8156	-0.03430303
99	0xbf1441a7	-0.5791268
100	0x3e76dc09	0.24107374
101	0xbea14df2	-0.3150478
102	0xbebbc473	-0.36673316
103	0xbee9e451	-0.45682004
104	0xbd8e55c0	-0.06949949
105	0xbe8efae3	-0.27925786
106	0xbded5b9a	-0.11589737
107	0xbcaa305b	-0.02077501
108	0xbebebd0c	-0.37253606
109	0xbe8e1d97	-0.2775695
110	0xbea77913	-0.3270956
111	0x3e7440c9	0.23852839
112	0xbf024a18	-0.5089431
113	0xbea1b886	-0.31586093
114	0xbea82b81	-0.3284569
115	0xbe9975a2	-0.2997256
116	0xbec51f80	-0.38500595
117	0x3e0acf54	0.13555652
118	0xbec75eaa	-0.3893941
119	0xbeca8059	-0.39551046
120	0xbf17e6a9	-0.59336334
121	0xbe8812ab	-0.26576743
122	0xbeffa235	-0.49928442
123	0xbf099b3f	-0.5375251
124	0xbf0a2fa4	-0.53978944
125	0xbef9250f	-0.48661086
126	0x3d6d54d5	0.05794223
127	0xbdb3ecf7	-0.08785432
128	0xbd410f4b	-0.047133725
129	0xbee1cafb	-0.44100174
130	0xbe4bd202	-0.1990433
131	0xbe40efb2	-0.18841437
132	0xbf1f07dd	-0.62121373
133	0xbe68028d	-0.22657223
134	0x3c49d2d3	0.012318331
135	0xbee51393	-0.44741496
136	0xbe3350e7	-0.1751133
137	0xbd6662fd	-0.056246746
138	0xbe874663	-0.26420888
139	0xbee60afd	-0.44930258
140	0xbe5daa03	-0.21646886
141	0xbf02047f	-0.5078811
142	0xbf19a19e	-0.60012233
143	0xbe9d6eba	-0.3074854
144	0xbf1517f9	-0.58239704
145	0xbe06845e	-0.13136432
146	0xbee13363	-0.43984517
147	0xbeafd5cb	-0.343428
148	0x3e369b9f	0.17832802
149	0xbe3c9ff9	-0.184204
150	0xbe32ad99	-0.17449035
151	0xbe04daa0	-0.12974024
152	0xbe9dea17	-0.3084266
153	0xbedcb7a4	-0.43108857
154	0xbeeba6db	-0.46025738
155	0xbe569bd7	-0.20957886
156	0x3e426b42	0.18986228
157	0xbf0dd1ad	-0.55398065
158	0x3d52b9b9	0.05144665
159	0xbed11c83	-0.40842065
160	0xbe8de9fd	-0.2771758
161	0x3d8f7022	0.070038095
162	0xbef80ec2	-0.4844876
163	0xbee934e8	-0.45548177
164	0xbef5adad	-0.47984067
165	0xbe274948	-0.16336548
166	0xbeffa5d6	-0.4993121
167	0xbf031728	-0.5120721
168	0x3dd77095	0.1051952
169	0xbde38879	-0.111100145
170	0xbdd9cfbc	-0.10635325
171	0xbde8a0e4	-0.113588125
172	0x3d4a0c0a	0.049327888
173	0x3e1fa4d3	0.15590219
174	0xbf00240b	-0.50055
175	0xbe576798	-0.21035612
176	0xbe4eb8e0	-0.20187712
177	0xbe8094bc	-0.25113475
178	0xbeeaae51	-0.45836118
179	0xbf180570	-0.59383297
180	0xbe8c92c2	-0.27455717
181	0xbd1be7d8	-0.0380629
182	0xbec19da2	-0.37815577
183	0xbed8c58c	-0.42338216
184	0xbed3ca6e	-0.4136538
185	0xbeaba0a7	-0.33521006
186	0xbdfd2cd8	-0.12362069
187	0xbec2cb92	-0.38045937
188	0xbe957009	-0.2918704
189	0xbe4fea28	-0.20304167
190	0xbe5b4f39	-0.2141694
191	0xbe4a19bc	-0.1973638
192	0x3d3270c3	0.04356457
193	0xbeb01223	-0.34388837
194	0xbe333806	-0.1750184
195	0xbe3a3cfd	-0.18187328
196	0xbdd96939	-0.10615773
197	0xbec7cf2a	-0.3902524
198	0xbecef6bd	-0.4042262
199	0xbf0b4577	-0.5440287
200	0xbdbd939d	-0.092566706
201	0xbe26cc7b	-0.1628894
202	0x3dbe47c3	0.09291031
203	0xbe95f642	-0.29289442
204	0xbe661414	-0.22468597
205	0xbe8d5890	-0.2760663
206	0x3da71995	0.08159176
207	0xbec2ca28	-0.38044858
208	0xbe4fddbb	-0.20299427
209	0xbed1feee	-0.41014808
210	0xbe356477	-0.17714106
211	0xbedc54c5	-0.43033424
212	0xbe8356cf	-0.25652167
213	0xbe4ee04b	-0.20202748
214	0xbee13fa5	-0.4399387
215	0x3e929e86	0.2863657
216	0xbdf00eba	-0.11721559
217	0x3dfa76a7	0.122296624
218	0xbeb5d0e3	-0.3551093
219	0xbe246680	-0.16054726
220	0xbed02285	-0.40651336
221	0xbea98373	-0.331081
222	0xbefc13f3	-0.4923397
223	0xbe483ea7	-0.1955515
224	0x3d143688	0.036184818
225	0xbe869b2c	-0.26290262
226	0x3d381be3	0.04494847
227	0x3e34f4d8	0.17671525
228	0xbe439162	-0.19098428
229	0xbeedd470	-0.4645114
230	0xbdb977e9	-0.09056074
231	0xbf00bab6	-0.502849
232	0xbf0d4767	-0.55187076
233	0x3cc12927	0.023579193
234	0x3dc4a688	0.09602076
235	0x3e5b4468	0.21412814
236	0xbe9eb59f	-0.3099794
237	0xbf0e44db	-0.55573815
238	0x3d01a07e	0.031647198
239	0xbe462820	-0.19351244
240	0x3e00f2c7	0.12592612
241	0xbee0a4c6	-0.43875712
242	0xbb2235df	-0.0024751348
243	0x3dc90f88	0.098174155
244	0xbd87cbc6	-0.066306636
245	0xbe560e10	-0.20903802
246	0x3cb0f958	0.021603271
247	0xbe862a03	-0.26203927
248	0xbe90d4f9	-0.28287485
249	0xbecb194b	-0.39667735
250	0xbee1f1da	-0.4412983
251	0xbe8ef245	-0.27919212
252	0xbd1cfd56	-0.038327537
253	0xbe6996aa	-0.2281138
254	0xbe3771ec	-0.17914551
255	0xbed107ef	-0.40826365

fc2.weight f4 [300, 400]
0	0xbd7249af	-0.0591523
1	0x3edfb8f7	0.43695804
2	0xbef90828	-0.48639035
3	0xbea3eaf7	-0.320152
4	0xbe003a31	-0.12522198
5	0xbe7ebc26	-0.2487646
6	0xbec5fa77	-0.38667652
7	0xbe9cf1ae	-0.30653137
8	0xbf57b213	-0.84256095
9	0x3e4e8d07	0.20170985
10	0xbddb7e9d	-0.10717509
11	0xbf5891a8	-0.84597254
12	0xbe956ef3	-0.2918621
13	0xbc8314d1	-0.016001137
14	0xbeee8130	-0.46582937
15	0x3d5a8b44	0.05335547
16	0xbe3cbe38	-0.18431938
17	0xbe5adb03	-0.21372609
18	0xbf022056	-0.5083059
19	0xbe8182d3	-0.25295123
20	0xbe83408b	-0.2563518
21	0xbe6e4a86	-0.23270616
22	0xbf671e82	-0.90280926
23	0xbdd12bd9	-0.102134414
24	0x3eccb6b0	0.3998313
25	0xbf1a30c7	-0.6023068
26	0xbd9f2004	-0.07769778
27	0xbe9bd168	-0.30433202
28	0xbdf97014	-0.1217958
29	0x3dd22b60	0.102621794
30	0xbf351556	-0.7073568
31	0xbe871448	-0.2638266
32	0xbded06d4	-0.11573568
33	0xbe86a54b	-0.26297984
34	0x3e319d73	0.17345218
35	0x3d3c2c11	0.045940462
36	0xbf1358b5	-0.5755723
37	0x3deade18	0.11468142
38	0xbea4852f	-0.3213286
39	0xbc10c0b7	-0.008835009
40	0x3d76c3f3	0.060245465
41	0x3ee9c201	0.45655826
42	0xbe8a5465	-0.27017513
43	0xbe480897	-0.19534527
44	0xbe49cd73	-0.19707279
45	0xbf99b0c9	-1.2007076
46	0xbda59f79	-0.080870576
47	0xbe91d03d	-0.28479186
48	0xbe8f0cbd	-0.27939406
49	0xbe7b924e	-0.2456753
50	0xbd032125	-0.03201403
51	0xbe876d1b	-0.26450428
52	0xbe5a53db	-0.21321051
53	0xbe1d1bb0	-0.15342593
54	0xbe45ef4a	-0.19329563
55	0xbe92ada3	-0.286481
56	0xbdf7dde3	-0.121028684
57	0xbe718c38	-0.23588645
58	0xbec884a9	-0.39163712
59	0xbe3cc89d	-0.18435903
60	0xbebd9a64	-0.37031853
61	0x3d8b7c9b	0.06810876
62	0x3cb2a1eb	0.021805724
63	0xbe70a632	-0.23500898
64	0xbe9d6309	-0.3073962
65	0x3dc4a3fe	0.096015915
66	0xbf49a1f5	-0.7876275
67	0xbe14e63a	-0.1454095
68	0x3eb8d083	0.36096582
69	0xbf148efa	-0.58030665
70	0x3e2d149f	0.16902398
71	0xbe132636	-0.14370045
72	0xbe7681b9	-0.24072923
73	0x3ef31b34	0.47481692
74	0xbeafa597	-0.34306023
75	0xbba0dce2	-0.004909144
76	0x3c0c4af8	0.008562796
77	0xbf0c92b7	-0.5491137
78	0xbe954d89	-0.29160717
79	0xbdb037ce	-0.08604394
80	0xbead4461	-0.3384123
81	0xbe4abb84	-0.19798094
82	0xbeb094e2	-0.3448859
83	0xbe19b9c3	-0.15012269
84	0xbe856f5e	-0.2606153
85	0xbee14090	-0.4399457
86	0xbe4a9e2e	-0.19786903
87	0x3f0664ac	0.52497363
88	0xbcc4d521	-0.024027409
89	0xbec6d820	-0.38836765
90	0xbe96577c	-0.2936362
91	0xbe3a348b	-0.18184106
92	0xbe88bb4b	-0.26705393
93	0xbe38ccb0	-0.18046832
94	0xbeb718f3	-0.35761222
95	0xbe737756	-0.23775992
96	0xbefb7fd7	-0.49120972
97	0xbe34c159	-0.17651881
98	0xbe5e0112	-0.21680096
99	0x3dd8e027	0.10589629
100	0xbf67d400	-0.9055786
101	0xbe7ada3b	-0.24497311
102	0xbe7b1ed3	-0.24523477
103	0xbee7624d	-0.45192185
104	0xbe37494b	-0.17899053
105	0xbec6097f	-0.3867912
106	0x3e63ed37	0.22258459
107	0xbf625075	-0.8840402
108	0x3da50be1	0.08058906
109	0xbe74882e	-0.23880073
110	0xbd719263	-0.058977496
111	0xbf56d0cf	-0.83912367
112	0xbe1ee840	-0.15518284
113	0x3d357750	0.04430324
114	0xbecca150	-0.39966822
115	0x3e561b48	0.20908844
116	0x3ed95c34	0.42453158
117	0x3e44debc	0.19225591
118	0x3f0b32ec	0.54374576
119	0x3ecd4956	0.40095013
120	0xbf0ece77	-0.5578379
121	0xbb02f2a5	-0.0019981053
122	0x3e37a254	0.17933017
123	0x3d68d27d	0.056841362
124	0xbeaafa90	-0.3339429
125	0x3d6fe88f	0.058571395
126	0xbdc8348d	-0.09775648
127	0xbdff54e3	-0.12467363
128	0xbf837ef9	-1.0273124
129	0x3e2cef8f	0.1688826
130	0xbd8f8c77	-0.070092134
131	0x3dc31ec9	0.09527356
132	0xbdab0b07	-0.08351713
133	0xbeb1633e	-0.34646028
134	0xbd22a665	-0.039709467
135	0xbe873052	-0.26404053
136	0xbf166451	-0.5874682
137	0xbd694584	-0.05695106
138	0xbe3ef82f	-0.18649362
139	0xbde2c590	-0.11072838
140	0xbdddd7ea	-0.10832198
141	0xbe680f15	-0.22662003
142	0xbe237037	-0.15960775
143	0x3e80ba55	0.2514216
144	0xbe93612d	-0.28785077
145	0xbdbcf858	-0.09227055
146	0x3e7af053	0.24505739
147	0xbca3c818	-0.019992873
148	0xbec2928c	-0.3800243
149	0xbe3950dc	-0.18097252
150	0xbe4b403a	-0.19848719
151	0x3e0f7fd1	0.14013602
152	0x3f348726	0.7051872
153	0x3e37d5fc	0.17952722
154	0x3e8304ad	0.25589505
155	0xbf1de12b	-0.61671704
156	0xbed67b74	-0.41891062
157	0xbe83af4e	-0.25719684
158	0x3c63b907	0.013899094
159	0xbdd2b7e4	-0.102889806
160	0xbe89c2c7	-0.26906416
161	0xbe3b1828	-0.18270934
162	0xbeb5ed5b	-0.3553265
163	0xbe84d62a	-0.25944644
164	0xbec03fd1	-0.37548688
165	0x3da77955	0.08177439
166	0x3eafc022	0.34326273
167	0x3e0b706c	0.13617104
168	0xbea2f897	-0.31830284
169	0x3e9c94d2	0.3058229
170	0xbf04eb21	-0.5192128
171	0xbf16e393	-0.58941
172	0xbddb3caf	-0.10704934
173	0xbf1651dd	-0.58718663
174	0xbe2e39ed	-0.17014284
175	0xbd70457f	-0.058660027
176	0xbf0d1c80	-0.5512161
177	0xbc7f4adc	-0.015581813
178	0xbdfab87a	-0.12242217
179	0xbf0459cd	-0.51699525
180	0x3e434ff1	0.19073464
181	0xbe756265	-0.23963316
182	0xbe8c79de	-0.27436727
183	0x3e8c706f	0.2742953
184	0xbede6221	-0.4343424
185	0xbd496a6c	-0.049173757
186	0x3def300d	0.11679087
187	0x3d80fed2	0.06298603
188	0xbe8d602f	-0.27612445
189	0xbe9f3a53	-0.31099185
190	0x3e811700	0.2521286
191	0xbf361564	-0.7112639
192	0xbf3a120e	-0.726838
193	0xbeab9399	-0.33511046
194	0xbea222ba	-0.3166712
195	0x3e8bbfe8	0.2729485
196	0xbef80631	-0.48442224
197	0x3c8c2e5e	0.017111953
198	0x3e0e98a8	0.13925421
199	0xbe2462d8	-0.16053331
200	0xbd726515	-0.05917843
201	0xbea5ca56	-0.32380933
202	0xbe72bd10	-0.23704934
203	0xbe0b95a0	-0.13631296
204	0xbe096e6a	-0.13421026
205	0xbdd4548c	-0.103676885
206	0xbf05179e	-0.5198916
207	0x3ea9eb21	0.33187202
208	0xbef5e238	-0.48024154
209	0xbd2fb71a	-0.04289923
210	0x3db7197b	0.08940407
211	0xbe9c5a6b	-0.30537733
212	0x3cbf3c46	0.02334417
213	0xbe992c7e	-0.29916757
214	0x3d989646	0.074505374
215	0x3e23fc9b	0.1601433
216	0xbe9f39ac	-0.31098688
217	0xbc36148a	-0.011113295
218	0x3cd9236f	0.026506154
219	0xbcacce60	-0.021094501
220	0xbeac5cde	-0.33664602
221	0x3e347e80	0.17626381
222	0x3ef5c64a	0.48002845
223	0xbebd2dc5	-0.36948982
224	0xbef5b8fc	-0.47992694
225	0x3e892ee1	0.26793578
226	0xbe8e1ae7	-0.277549
227	0x3e3f05ca	0.18654552
228	0xbd9f115f	-0.07766985
229	0xbe6b91af	-0.23004793
230	0x3d124bee	0.035716943
231	0xbe6777af	-0.2260425
232	0xbe058689	-0.13039602
233	0xbf5d1b9d	-0.8637026
234	0xbee37ec6	-0.44432658
235	0xbe16de3e	-0.14733216
236	0x3e255cd0	0.16148686
237	0x3e5bd9fa	0.2146987
238	0xbef62006	-0.48071307
239	0xbdd3ddf2	-0.10345067
240	0xbdfdf94b	-0.124010645
241	0xbf038a30	-0.5138273
242	0x3c898a89	0.016789692
243	0x3c616788	0.013757594
244	0xbf242208	-0.6411443
245	0xbefb8bdf	-0.4913015
246	0xbf323e04	-0.6962588
247	0xbe24501f	-0.16046189
248	0xbecaac7d	-0.39584723
249	0xbe5e2e8d	-0.21697445
250	0x3dd26421	0.10273004
251	0xbe150639	-0.14553155
252	0xbef46c66	-0.4773895
253	0xbf1c486d	-0.6104801
254	0x3ee260ee	0.44214576
255	0xbdcec608	-0.10096365

fc2.bias f4 [300]
0	0x3d921f49	0.071348734
1	0xbe5b8d59	-0.21440639
2	0xbe56e1cb	-0.2098457
3	0x3dcbf66a	0.09959109
4	0xbda77511	-0.081766255
5	0x3d83381f	0.064071886
6	0xbec6a7fa	-0.3880003
7	0xbcc278c6	-0.02373923
8	0x3e045ed9	0.12926807
9	0xbd634972	-0.055489965
10	0xbe68bf4c	-0.22729224
11	0x3eeaafd3	0.45837268
12	0xbe8d4293	-0.27589855
13	0xbd29c739	-0.04144976
14	0x3e87a72e	0.26494735
15	0x3d9c7cbc	0.07640979
16	0xbd68b9bd	-0.05681776
17	0xbe6ab824	-0.22921807
18	0x3e121ee5	0.14269598
19	0xbdeaf4b9	-0.114724584
20	0xbe0d53e9	-0.1380154
21	0xbe02393e	-0.12717149
22	0xbe66082a	-0.22464052
23	0xbeaa8a3d	-0.33308592
24	0x3d8ada9e	0.06779979
25	0xbec7f665	-0.39055172
26	0xbe259d04	-0.16173178
27	0xbe17b445	-0.14814861
28	0xbe280196	-0.16406855
29	0xbdda5d37	-0.106623106
30	0xbe02d266	-0.12775573
31	0xbe888f3e	-0.26671785
32	0xbeb60e24	-0.35557663
33	0xbecff497	-0.40616295
34	0xbee48dcb	-0.4463943
35	0xbe6a6bd4	-0.22892696
36	0xbd9e6ec2	-0.07735969
37	0xbe892622	-0.26786906
38	0xbf48f464	-0.7849791
39	0xbe85c178	-0.26124167
40	0x3bd76603	0.00657344
41	0xbea633df	-0.3246145
42	0xbe612bfb	-0.21989433
43	0xbe67d13c	-0.2263841
44	0xbe221265	-0.1582733
45	0x3e03a336	0.12855229
46	0xbed91bce	-0.42404026
47	0x3c052d1e	0.008128433
48	0x3c656f6d	0.014003617
49	0xbd3582ee	-0.044314317
50	0xbe4e283a	-0.20132533
51	0xbeb556ca	-0.35417777
52	0x3e84042a	0.25784427
53	0x3c08617c	0.008324023
54	0xbe8de655	-0.27714792
55	0xbf3181e9	-0.6933885
56	0xbd9e569e	-0.07731365
57	0xbe222e23	-0.15837912
58	0xbe797b55	-0.24363454
59	0xbeaf3377	-0.34218952
60	0xbea864e0	-0.32889462
61	0x3d750745	0.059821386
62	0xbe6c0114	-0.23047286
63	0xbe43b291	-0.19111086
64	0xbe6376a0	-0.2221322
65	0x3d541ae0	0.051783442
66	0x3cf66e0f	0.030081777
67	0xbe963c84	-0.29343045
68	0x3c1d0104	0.009582762
69	0xbd751902	-0.059838302
70	0xbca353da	-0.019937444
71	0xbedfba3c	-0.43696773
72	0xbe268d66	-0.16264877
73	0xbe3406ec	-0.17580765
74	0xbd5c8512	-0.053837843
75	0xbdb53103	-0.08847239
76	0x3e336847	0.17520247
77	0xbeadf5b2	-0.33976513
78	0xbe2b3950	-0.16721082
79	0xbda88bb3	-0.082297705
80	0x3e9643d6	0.2934863
81	0xbe4f1b90	-0.20225358
82	0xbb938a58	-0.004502576
83	0x3dd4adb4	0.10384694
84	0xbd9c830f	-0.07642185
85	0xbda3c73e	-0.07996987
86	0xbea010db	-0.3126286
87	0xbd59d6ff	-0.053183552
88	0xbdcdb036	-0.10043375
89	0xbd8f7472	-0.07004632
90	0xbe5cf5aa	-0.21578088
91	0x3d4b7831	0.04967517
92	0xbe06f94f	-0.13181041
93	0xbd9f53f0	-0.07779682
94	0xbdf91512	-0.12162222
95	0x3e237921	0.15964176
96	0xbe87a589	-0.2649348
97	0x3e2a1ca5	0.1661249
98	0x3c76205f	0.015022366
99	0x3e5dcb62	0.21659616
100	0xbed26f2d	-0.41100445
101	0x3e8017fb	0.25018296
102	0x3e3ca416	0.18421969
103	0xbf5c0799	-0.85949093
104	0xbcab571b	-0.020915559
105	0xbddac347	-0.106817774
106	0xbbe3d0f9	-0.0069524017
107	0xbeb2c8c5	-0.349188
108	0xbecc5961	-0.3991194
109	0x3e11907e	0.14215276
110	0xbe24ae42	-0.16082099
111	0xbe55fe3d	-0.20897765
112	0xbe1f1259	-0.15534343
113	0xbf44c893	-0.7686855
114	0xbe00eb07	-0.12589656
115	0xbe043c9c	-0.12913746
116	0xbe6770b3	-0.22601585
117	0xbe2f45f2	-0.17116526
118	0x3d855009	0.06509406
119	0x3d3396ec	0.043845102
120	0x3c084353	0.008316833
121	0xbf3cd5d2	-0.73763764
122	0x3e20d2bd	0.1570539
123	0x3eaa321f	0.33241364
124	0x3e2c5317	0.16828571
125	0xbdc0ac55	-0.0940787
126	0xbe863c3a	-0.26217824
127	0xbebbad43	-0.36655626
128	0xbe8ce959	-0.2752178
129	0xbd177c3f	-0.036983725
130	0xbd894450	-0.06702483
131	0xbd84c03f	-0.064819805
132	0x3da83267	0.082127385
133	0x3e2cf962	0.16892007
134	0x3dceb306	0.1009274
135	0xbdd2703f	-0.102753155
136	0xbd3706e9	-0.044684324
137	0x3d966f1e	0.07345413
138	0x3e5a2db3	0.21306495
139	0x3bdde6a9	0.0067718816
140	0x3d013b33	0.031550597
141	0x3befb4ef	0.00731527
142	0xbd454f1d	-0.04817115
143	0xbe57dffe	-0.2108154
144	0xbf172396	-0.59038675
145	0xbe899122	-0.2686854
146	0xbe103e6c	-0.14086312
147	0xbe82d295	-0.25551286
148	0xbd879161	-0.06619526
149	0x3e2875ea	0.1645123
150	0x3d2dff7d	0.04247998
151	0xbe119a33	-0.14218979
152	0x3d11b00f	0.035568293
153	0xbdf98115	-0.121828236
154	0xbe848048	-0.2587912
155	0xbe886d34	-0.26645815
156	0xbc845315	-0.016152898
157	0xbe263659	-0.1623167
158	0xbe961bfa	-0.2931822
159	0xbddf72d7	-0.10910576
160	0xbe4dccc3	-0.20097642
161	0xbd973c6b	-0.07384571
162	0xbea93114	-0.33045256
163	0x3d522baf	0.05131119
164	0xbe822ccc	-0.25424802
165	0x3df029b1	0.11726702
166	0xbd93aaf3	-0.0721034
167	0xbe0d3538	-0.13789833
168	0xbe216ec9	-0.15764917
169	0xbd3a2d6a	-0.045453466
170	0x3d6c9fe8	0.057769686
171	0xbe3abf26	-0.1823698
172	0x3c865bcd	0.016401196
173	0xbe51b337	-0.20478521
174	0xbde74482	-0.11292364
175	0x3ddc0ef6	0.10745041
176	0xbdf4d727	-0.119550996
177	0xbd8bab92	-0.06819834
178	0x3dbe2ecb	0.09286269
179	0x3e05ec37	0.1307839
180	0xbe99f82f	-0.30072162
181	0x3d01ee02	0.031721123
182	0xbee75bd2	-0.4518724
183	0xbeebf8a4	-0.46088135
184	0x3e08653d	0.1331987
185	0x3dfda427	0.12384825
186	0xbe756231	-0.23963238
187	0x3ea7e76e	0.32793754
188	0xbe7a4e79	-0.24443997
189	0xbe6d4b32	-0.23173216
190	0xbe621df8	-0.22081745
191	0x3ca547d0	0.020175844
192	0x3dd2f4c6	0.10300593
193	0xbec19b37	-0.37813732
194	0xbe4a2f74	-0.19744664
195	0x3e6b2589	0.22963537
196	0x3d04c3ac	0.03241317
197	0xbf00280d	-0.5006111
198	0xbe17300f	-0.14764427
199	0xbed15da1	-0.40891746
200	0xbe1746e6	-0.1477314
201	0xbe5b4572	-0.2141321
202	0xbeae8c4b	-0.3409141
203	0x3d3ddbcc	0.046352193
204	0xbceaab3b	-0.028646102
205	0xbe2745e5	-0.16335256
206	0xbe17697b	-0.14786331
207	0x3e2f3b93	0.1711257
208	0x3e6cacbb	0.23112766
209	0x3cbf00be	0.023315784
210	0xbddddd92	-0.10833277
211	0x3be33994	0.006934354
212	0x3dbe7511	0.092996724
213	0xbeae38f1	-0.34027818
214	0xbee93e74	-0.4555546
215	0xbe6c1fe1	-0.23059036
216	0xbeba2ef9	-0.36363962
217	0x3cf483e8	0.029848054
218	0xbc7144ae	-0.014725847
219	0xbeac1a4a	-0.33613807
220	0xbec34fb0	-0.38146734
221	0xbf2b0c8b	-0.66816014
222	0x3e3fa3a9	0.18714775
223	0xbe77511e	-0.24152038
224	0xbed28d57	-0.4112346
225	0xbe2a0d31	-0.16606595
226	0x3d20e01c	0.039276227
227	0xbd840bb7	-0.06447547
228	0xbd281e9a	-0.04104481
229	0xbedd7932	-0.43256527
230	0xbe88314c	-0.2660011
231	0xbd0971a4	-0.03355564
232	0xbeca6698	-0.39531398
233	0xbb9cf35a	-0.004789752
234	0xbea62084	-0.32446682
235	0x3e4797be	0.19491479
236	0x3df08acc	0.117452234
237	0x3e17a0b9	0.14807405
238	0x3e6c3c3c	0.23069853
239	0x3a205bc4	0.000611719
240	0xbe7038ba	-0.2345914
241	0xbf2460a2	-0.6420995
242	0x3df22874	0.11824122
243	0xbdc54c4e	-0.096336946
244	0x3e7db67f	0.24776648
245	0xbe689624	-0.22713524
246	0x3d9046b0	0.070447326
247	0x3dd6a1df	0.10480093
248	0xbe1209f0	-0.14261603
249	0xbec92830	-0.39288473
250	0xbcfcac5a	-0.030843902
251	0x3d28a588	0.041173488
252	0xbe131fca	-0.14367595
253	0xbe498bb3	-0.19682197
254	0xbe87636f	-0.2644305
255	0xbec72394	-0.3889433

fc3.weight f4 [2, 300]
0	0x3f62bca0	0.8856907
1	0xbedc59f9	-0.43037394
2	0xbefe5752	-0.49675995
3	0xbf09756e	-0.5369481
4	0x3c7e0b25	0.015505587
5	0x3f5e4da6	0.8683723
6	0xbe15f46d	-0.14644022
7	0xbb47bc92	-0.0030477387
8	0xbf18397d	-0.5946272
9	0x3f502954	0.8131306
10	0xbe1927d9	-0.14956607
11	0xbf1cedeb	-0.61300534
12	0xbd137974	-0.0360045
13	0xbf1b2449	-0.6060224
14	0xbe66a20b	-0.22522752
15	0x3d28484e	0.04108458
16	0xbde6bc00	-0.11266327
17	0x3d36137b	0.04445217
18	0xbf66ebb4	-0.90203404
19	0x3fadf761	1.3591119
20	0xbc13d5fb	-0.009023185
21	0x3e0e1a38	0.13877189
22	0xbefd31f5	-0.49452177
23	0x3eca2c00	0.39486694
24	0xbf30865a	-0.68955004
25	0xbe963149	-0.29334477
26	0x3ccaf398	0.024774358
27	0xbed35143	-0.41272935
28	0x3e012551	0.12611891
29	0x3e1b4917	0.151646
30	0xbdbce678	-0.09223646
31	0xbe99adb6	-0.30015343
32	0x3e9cceaa	0.30626422
33	0x3ec8f07e	0.3924598
34	0x3e242e50	0.16033292
35	0xbcb3f9bb	-0.021969667
36	0x3ec6bca4	0.38815796
37	0x3f495aaf	0.78654
38	0xbf0d19e3	-0.55117625
39	0xbcb85fae	-0.022506561
40	0x3ebf8f79	0.37414148
41	0x3d1c12b7	0.038103785
42	0x3e201b61	0.15635444
43	0x3e927546	0.28605098
44	0x3f71bdeb	0.94430417
45	0xbe970ffb	-0.2950438
46	0xbddbaf36	-0.10726778
47	0xbef6a7f1	-0.48175004
48	0x3e59311c	0.2121014
49	0xbf02b88f	-0.51062864
50	0xbed0de78	-0.4079473
51	0xbed0a9be	-0.40754503
52	0x3d378b5c	0.044810638
53	0x3f56850f	0.8379678
54	0x3e6032c3	0.21894364
55	0xbf9582ae	-1.1680505
56	0xbcd5a201	-0.026078226
57	0xbc8d3e1f	-0.017241536
58	0x3e54809d	0.20752187
59	0xbd03fed9	-0.032225464
60	0xbd654e77	-0.055983033
61	0xbe82a525	-0.2551662
62	0xbd8d66a0	-0.0690434
63	0xbf2b8459	-0.6699882
64	0xbe42129f	-0.18952416
65	0x3d38957e	0.04506444
66	0x3f026720	0.50938606
67	0x3f194d1c	0.59883285
68	0xbe6cd75a	-0.23129025
69	0xbdf5ba1c	-0.11998388
70	0x3f2c8227	0.67386097
71	0x3d3444f3	0.044011068
72	0x3e58b0f5	0.21161254
73	0xbcdfafc4	-0.027305491
74	0x3e62d9a3	0.22153334
75	0x3f03572b	0.5130488
76	0x3e20e0c0	0.15710735
77	0xbef4892e	-0.4776091
78	0x3e6ee5fd	0.23329921
79	0x3f748834	0.9552033
80	0xbfb18abd	-1.3870465
81	0xbd57fbb1	-0.052730266
82	0x3e430edc	0.19048637
83	0xbe3417fb	-0.17587273
84	0x3e6c3a8c	0.23069209
85	0x3f103244	0.563267
86	0xbb9aeab2	-0.004727685
87	0x3e49764f	0.19674037
88	0x3f63c354	0.8896992
89	0x3f1a96ab	0.6038615
90	0xbe9628f4	-0.2932812
91	0x3f456e35	0.7712129
92	0xbe7b32d6	-0.24531111
93	0xbf124a2e	-0.5714444
94	0xbdc85908	-0.09782606
95	0xbbfb6a05	-0.0076725506
96	0x3e8809cc	0.26569974
97	0x3f584e37	0.84494346
98	0xbf8fefef	-1.1245097
99	0xbe37ead2	-0.1796067
100	0xbdb98fc5	-0.09060625
101	0x3e9526a7	0.29131052
102	0xbf47d02a	-0.7805201
103	0xbe5d07a0	-0.2158494
104	0x3f05a935	0.52211314
105	0xbf28dbf9	-0.6596065
106	0x3e4adde8	0.19811213
107	0xbe41642f	-0.18885873
108	0x3ddbf8d8	0.107408226
109	0x3b20eea2	0.0024556299
110	0xbed87af9	-0.4228132
111	0xbcdaf74f	-0.026729254
112	0xbf0ef9a4	-0.5584967
113	0xbf1aaf21	-0.60423476
114	0xbf806064	-1.0029416
115	0x3e1526c2	0.14565566
116	0xbec01b73	-0.37520942
117	0x3d3337ea	0.043754496
118	0x3f244d09	0.64180046
119	0xbe203117	-0.15643726
120	0x3ebf566b	0.3737062
121	0xbf0e687d	-0.55628186
122	0x3f602988	0.8756337
123	0x3bc969e0	0.0061466545
124	0xbfb92148	-1.4463282
125	0x3e050a79	0.12992276
126	0x3d08272a	0.033240475
127	0xbeee1284	-0.464985
128	0x3f1c79fb	0.6112363
129	0x3f384ff6	0.7199701
130	0xbe771370	-0.24128509
131	0xbe29a27b	-0.16565888
132	0xbcfa3058	-0.03054063
133	0xbf4b5a88	-0.79435015
134	0xbe5487c0	-0.2075491
135	0x3c82c968	0.015965179
136	0x3ef4ec08	0.47836328
137	0x3e4f6f25	0.20257242
138	0xbf3b09b2	-0.7306167
139	0x3e536f21	0.20647861
140	0x3e4c36a4	0.19942719
141	0x3e4b2a0e	0.19840261
142	0xbe728784	-0.23684508
143	0x3d8c3b14	0.06847206
144	0xbe4072e0	-0.18793821
145	0xbe009cf5	-0.12559874
146	0xbc07d898	-0.008291386
147	0x3dccc19c	0.099978656
148	0x3e008926	0.12552318
149	0x3e503ac7	0.20334922
150	0xbf337ac3	-0.70109195
151	0x3f95e4f2	1.1710494
152	0x3dbef20a	0.09323509
153	0xbe04f83d	-0.1298532
154	0x3e333d4e	0.17503855
155	0x3ec9c42b	0.39407477
156	0xbebf2929	-0.3733609
157	0x3e802fb4	0.25036395
158	0xbde28f0a	-0.11062439
159	0x3f1b58fe	0.60682666
160	0x3d2fb39a	0.04289589
161	0x3da5ce58	0.080959976
162	0xbc147fd7	-0.0090636825
163	0xbf345a75	-0.70450526
164	0x3ec441eb	0.3833154
165	0x3d3b2218	0.04568681
166	0x3e1531c9	0.14569773
167	0x3e47594c	0.19467658
168	0xbd6bff70	-0.05761665
169	0x3dd5d7f1	0.10441578
170	0xbcb382f7	-0.021913035
171	0xbe44f531	-0.19234158
172	0xbee63475	-0.44961897
173	0x3e90b5cc	0.282637
174	0x3c88c637	0.016696079
175	0x3e88f05e	0.26745886
176	0x3d3254f6	0.043538056
177	0x3ec7d08d	0.390263
178	0x3e1317b2	0.14364508
179	0xbe5ef5fb	-0.21773522
180	0x3f1a83f7	0.6035761
181	0x3f264d67	0.64961857
182	0xbdafbe6c	-0.08581242
183	0x3cedb7a7	0.029018236
184	0x3cd6adde	0.026205953
185	0x3e7b8385	0.2456189
186	0xbea1c19e	-0.3159303
187	0xbf92849d	-1.144672
188	0x3f5a1301	0.8518525
189	0x3ccc3992	0.024929795
190	0x3e91ed01	0.28501132
191	0xbe6125c1	-0.21987058
192	0x3e8b23d9	0.27175787
193	0x3dc5cd28	0.09658271
194	0x3c287101	0.0102808485
195	0xbf6eac57	-0.9323172
196	0x3e9ee79e	0.31036085
197	0xbe4f0931	-0.2021835
198	0x3c5e7afe	0.013579128
199	0xbe824ef6	-0.25450867
200	0x3d0dda3f	0.034631964
201	0x3d44677c	0.047950253
202	0xbe3bc9b0	-0.18338656
203	0xb9d1209c	-0.00039887882
204	0x3e7737d4	0.2414239
205	0x3d784ac4	0.060618177
206	0x3e0fa849	0.1402904
207	0x3ebda7f5	0.37042204
208	0x3d8548fd	0.06508062
209	0x3e799d8d	0.24376507
210	0x3f05ea60	0.5231075
211	0x3f4d8514	0.80281186
212	0xbe08837d	-0.13331409
213	0xbe1a6e20	-0.15081072
214	0x3f3e99aa	0.7445322
215	0xbdbe67e7	-0.092971615
216	0x3d160252	0.036623307
217	0xbd031441	-0.032001738
218	0x3c824d98	0.01590614
219	0xbf1f355c	-0.62190795
220	0x3eb55ad9	0.35420874
221	0xbef8a807	-0.48565695
222	0x3f782eb0	0.9694624
223	0x3d0714d6	0.032978855
224	0xbe3892b8	-0.18024719
225	0x3efb78c3	0.4911557
226	0x3dbab4a7	0.09116488
227	0x3d65be03	0.056089412
228	0x3ea4bc65	0.32174984
229	0x3d6f49aa	0.05841986
230	0xbf539429	-0.8264795
231	0x3e338652	0.17531708
232	0xbd0769ed	-0.033060003
233	0xbd23dc28	-0.04000488
234	0xbf34d7d3	-0.7064182
235	0xbeca644e	-0.3952965
236	0xbf82b5f5	-1.0211779
237	0x3b9f83df	0.004868015
238	0xbe66f874	-0.22555715
239	0xbdb01b57	-0.08598965
240	0xbdd0654e	-0.10175572
241	0xbe459d5e	-0.19298312
242	0xbf223a75	-0.6337045
243	0x3e29ca80	0.16581154
244	0x3e0b39c9	0.13596262
245	0x3f1faaed	0.6237019
246	0xbdb92602	-0.090404525
247	0x3e145af6	0.14487824
248	0xbd376f27	-0.044783738
249	0xbf12788e	-0.572152
250	0xbc9e0d27	-0.01929338
251	0xbf93ac88	-1.1537027
252	0x3f0cd39d	0.55010396
253	0xbde6de2e	-0.11272846
254	0x3e2164cc	0.15761107
255	0xbdb0f401	-0.0864029

fc3.bias f4 [2]
0	0xbe05771f	-0.13033722
1	0x3ca01d3c	0.01954519

bn.weight f4 [24]
0	0x3e2d4917	0.16922413
1	0x3ea4ab18	0.32161784
2	0xbd82f3ca	-0.06394155
3	0x3e4dc947	0.20096312
4	0x3f3d0ada	0.73844683
5	0x3f17bf52	0.59276307
6	0x3e3a7066	0.18206939
7	0x3da0285f	0.078202
8	0x3db78d00	0.089624405
9	0xbc0fb118	-0.00877025
10	0x3de77627	0.11301833
11	0x3d4b26a0	0.049597383
12	0x3c572461	0.013131232
13	0x3c044454	0.008072931
14	0xbe345df4	-0.17613965
15	0x3dc49328	0.0959838
16	0x3eee7fbf	0.46581838
17	0x3e9ae926	0.30256003
18	0x3e7bbf2b	0.24584644
19	0x3eb7363a	0.3578356
20	0x3f7bb1dd	0.9831827
21	0x3f271072	0.6525947
22	0x3d3bad64	0.045819655
23	0x3e39787c	0.18112367

bn.bias f4 [24]
0	0x3cf6aca4	0.030111618
1	0xbbd56aea	-0.0065129893
2	0xbef3651e	-0.47538084
3	0xbe80a10d	-0.25122872
4	0x3d35ef97	0.044417944
5	0x3dbb0645	0.09132055
6	0xbdd0f2ba	-0.102025464
7	0xbdc21379	-0.0947637
8	0xbdb57be1	-0.08861519
9	0xbc3688f2	-0.011141049
10	0xbdf56d03	-0.11983683
11	0xbd333aa8	-0.04375711
12	0x3c8df0b7	0.017326696
13	0x3c1d0e0a	0.009585867
14	0xbca9438a	-0.020662088
15	0xbd5bf587	-0.05370095
16	0x3def13e0	0.11673713
17	0xbe5a5b86	-0.21323976
18	0x3d8b31c5	0.06796602
19	0xbe58c8cb	-0.21170346
20	0x3cb4d338	0.022073373
21	0x3dfbf34d	0.12302265
22	0x3bc63696	0.0060489876
23	0xbdf82f8c	-0.12118444

bn.running_mean f4 [24]
0	0xc108aa59	-8.541589
1	0xbf420eff	-0.7580413
2	0x3fb78355	1.4336954
3	0x3cd20ed8	0.025641844
4	0xbd625e85	-0.055265922
5	0x407c50de	3.9424357
6	0x3fb78355	1.4336954
7	0x3cd20ed8	0.025641844
8	0xc10ae296	-8.680319
9	0xbf439c2c	-0.76410174
10	0x3f7bff75	0.9843667
11	0x3d3f52b6	0.04670974
12	0xbc399a8f	-0.011328354
13	0x407c7959	3.9449065
14	0x3f7bff75	0.9843667
15	0x3d3f52b6	0.04670974
16	0xc10c0f33	-8.753711
17	0xbf430861	-0.7618466
18	0x3fbb30c5	1.4624258
19	0x3dd97fd5	0.10620085
20	0xbbcc792f	-0.006240032
21	0x407ae928	3.9204807
22	0x3fbb30c5	1.4624258
23	0x3dd97fd5	0.10620085

bn.running_var f4 [24]
0	0x412e3865	10.888768
1	0x3f8bc7e6	1.0920379
2	0x43a697e3	333.1866
3	0x415d052a	13.813761
4	0x41e6de28	28.858475
5	0x402795f9	2.6185286
6	0x43a697e3	333.1866
7	0x415d052a	13.813761
8	0x4121728a	10.090464
9	0x3f8ca663	1.0988277
10	0x43a7d720	335.68066
11	0x415acc97	13.674949
12	0x41edee0a	29.74123
13	0x40287793	2.6322982
14	0x43a7d720	335.68066
15	0x415acc97	13.674949
16	0x4118299c	9.510159
17	0x3f8dbd17	1.1073331
18	0x43ae2e02	348.35944
19	0x4156ac6b	13.417094
20	0x41f3fdac	30.498863
21	0x402fe625	2.748422
22	0x43ae2e02	348.35944
23	0x4156ac6b	13.417094
