models/checkpoint_actor1.pth (torch_old, 525742 bytes, 10 tensors)

fc1.weight f4 [400, 24]
000000 37 69 03 be 3d 21 a1 bd 29 56 87 be bd 0b 68 bd
       -0.12833105 -0.07867668 -0.26432922 -0.05665182
000010 1f 6e 8c 3e 54 0a 46 3d d0 b9 81 bd 24 99 4b 3e
       0.27427766 0.048349693 -0.06334269 0.19882637
000020 95 71 a3 3d 57 66 ec 3c 8b 1d 48 bd 1e fd 51 3e
       0.079806484 0.028857393 -0.0488563 0.20506713
000030 04 d7 aa 3d 4d 05 ce 3d 95 cf a2 be 9e c3 20 3e
       0.08341792 0.10059605 -0.31798998 0.15699622
000040 83 dd 78 3c 3d f3 98 3d 17 0c 6d be 86 67 d7 bd
       0.015189531 0.07468269 -0.23149143 -0.105177924
000050 60 b8 83 be 79 12 07 3d 47 77 b8 bd b2 8a 41 be
       -0.25726604 0.0329766 -0.09007125 -0.18900564
000060 60 37 d7 3c 7e 9c 63 bf 00 53 70 be e2 3b 1c be
       0.026271522 -0.88910663 -0.23469162 -0.15257218
000070 a8 68 0f bf eb c8 22 be ab 9d 8f 3e 45 ae 97 3e
       -0.5601907 -0.15896957 0.2804998 0.29625145
000080 b3 0a 4c 3d e5 15 03 bf 61 a5 a9 3d b5 1e 93 3e
       0.04981489 -0.51205283 0.08283497 0.28734365
000090 83 6f 01 3e 6f 5f 79 3f 6f af 35 be 97 d3 9b 3e
       0.12640195 0.97411245 -0.17742704 0.30434868
0000a0 05 6c 36 be 87 4c 09 be 1a 34 ae be a6 a9 dd 3d
       -0.17814644 -0.13408099 -0.34024125 0.108233735
0000b0 ca 94 51 3f 2d 74 3d bf f4 52 ac be da 5b 47 bb
       0.8186766 -0.74005395 -0.33657038 -0.0030419738
0000c0 54 85 c5 be 42 64 fe be 61 5e 3f bd 1e 59 bd 3e
       -0.38578284 -0.49685866 -0.046720866 0.36982054
0000d0 91 6d e9 be 53 26 49 3f ab 68 0f 3e 62 f3 ff 3e
       -0.45591405 0.78574103 0.14004771 0.49990374
0000e0 80 54 d7 be 20 4e 85 be 15 1c 42 be 7e e7 b4 3e
       -0.42056656 -0.26036167 -0.18956025 0.35332865
0000f0 63 a6 86 3d 0c dd 2c 3f 15 fe 58 be 83 20 9b 3e
       0.065747045 0.6752479 -0.21190675 0.30298242
000100 b8 1c 15 bf 23 30 5e be 73 e9 4b bd e0 ed d4 3c
       -0.58246946 -0.2169805 -0.04978318 0.025992334
000110 ac 58 b0 3e 48 ad 43 be 53 c1 46 be 4a 9b 09 3e
       0.3444265 -0.1910907 -0.19409685 0.13438144
000120 a7 c1 f4 be 64 f7 9f 3e ac 30 af be 1b cc 26 bd
       -0.47803995 0.31243432 -0.3421682 -0.040721994
000130 b9 53 11 bf 22 fc 04 3e 0e 02 b6 3d 79 9c 8b 3e
       -0.56768376 0.12986806 0.08887111 0.27267817
000140 99 f1 fc be f0 10 c8 3d bd c7 2a be de 64 7c bd
       -0.49403074 0.097688556 -0.16677757 -0.061619632
000150 7d 3d 66 be fc e5 69 3e d3 33 ab be 3d 0e 8c bd
       -0.22484393 0.22841638 -0.33437976 -0.06838653
000160 3f 4d bd be f1 1b d6 3e aa f0 18 3e 79 51 3a 3e
       -0.36972997 0.41818193 0.14935556 0.18195142
000170 6a 8b 6f be 30 bd 5f 3e bd cf 12 3e 42 a5 10 3d
       -0.23393026 0.21849513 0.14337058 0.035313852
000180 5c 6f b8 be ae 96 a8 3e 3f d1 d7 bd ed 1e b2 be
       -0.3602246 0.3292746 -0.105379574 -0.3478922
000190 dd 28 45 bd ab ed 82 be c5 04 06 3f 70 e3 90 3e
       -0.048134673 -0.2557195 0.5235103 0.2829852
0001a0 66 20 5b bf 1e f8 db 3e 31 73 a7 be 9e df 9e bd
       -0.8559631 0.42962736 -0.32705072 -0.07757495
0001b0 97 1f e9 3e b7 11 3d 3e 1c 08 21 bf 07 4a 00 be
       0.45531914 0.18463789 -0.62903 -0.12528239
0001c0 b3 f8 aa be 19 3c 13 3f f3 64 40 3e 85 38 9c be
       -0.33392867 0.57513577 0.18788509 -0.3051187
0001d0 1b cf 6c 3e 24 1b 49 be a9 27 8e 3e e4 35 d6 be
       0.2312588 -0.1963926 0.27764633 -0.4183799
0001e0 0d ae 09 3e fa 2f 38 3c 7e 3b 60 be 30 23 a7 be
       0.13445301 0.011241907 -0.21897694 -0.32644033
0001f0 9a 57 c7 3e 80 1b 88 3e d1 35 2f 3e ea 66 7e 3e
       0.38934022 0.2658348 0.17110373 0.24843946
000200 27 a5 1b ba df 1a a8 be 6e 17 17 3e 7a f9 19 be
       -0.00059373904 -0.32833 0.14755031 -0.15036574
000210 84 b8 cc bd e0 15 3a 3f 58 af 56 be a2 7b 4c be
       -0.09996131 0.7268963 -0.20965326 -0.19969037
000220 ad 55 b6 3d 7e f9 1a be 77 67 e5 bd 17 9b 0b bf
       0.0890306 -0.15134236 -0.11201375 -0.54533523
000230 a9 54 80 bf db 31 d1 be 02 08 3a be bb fa 40 bf
       -1.0025836 -0.4085835 -0.18167117 -0.75382584
000240 01 18 3a 3e 1a d0 9a be a9 2d 5a bf 50 97 fd 3d
       0.1817322 -0.30236894 -0.8522592 0.12382376
000250 fb 2f 6f 3d 2f 81 e4 3d af 0d c6 be 58 01 17 3f
       0.058395367 0.11157452 -0.38682315 0.58986425
000260 c6 55 82 bd ef 43 84 be 56 81 ad be 62 c1 a3 3e
       -0.06364016 -0.2583308 -0.33887738 0.31983477
000270 87 b1 9b 3e 4a 44 7d 3e 41 fd 22 bf 1a 58 b0 3e
       0.3040888 0.24733081 -0.63667685 0.34442216
000280 62 a1 a3 3e 9b 22 a3 3c 70 1a 77 3e 7c 4b b3 3e
       0.31959063 0.019913962 0.24131179 0.35018528
000290 ca d2 5a 3e 9d 48 9b 3e cf 7d 1e 3e 58 8c 0f 3e
       0.21369472 0.30328837 0.1547768 0.1401838
0002a0 ee f7 36 bd 7e 1a 5a bf c1 ef a3 be 6d 66 cb 3d
       -0.044670038 -0.85196674 -0.32018855 0.099316455
0002b0 18 85 16 3f 3a 85 74 be 5c c7 0f 3e 5f da ad 3e
       0.58796835 -0.23878947 0.14040893 0.33955666
0002c0 e2 dd c2 3d 20 05 0e bf 5b c8 8f 3e bc 1d b2 3e
       0.09514977 -0.5547657 0.28082547 0.3478831
0002d0 8c f7 9d 3e a6 d6 17 be eb a8 98 3d 58 8c a0 3e
       0.30852926 -0.14827976 0.074540935 0.31357074
0002e0 a8 39 02 3e 8e 1b 83 be b5 21 56 be 35 0f ed 3e
       0.12717307 -0.2560696 -0.20911296 0.46300665
0002f0 b3 ba 22 bf d6 44 af 3c 56 f7 04 be be 03 71 3e
       -0.6356613 0.021395128 -0.12984976 0.23536584
000300 d3 51 0a be 83 81 cb bd a6 ad b2 be 91 3a 7e bf
       -0.13507776 -0.09936812 -0.34898108 -0.99308115
000310 42 4b 6b bf 5b bc 29 3e 66 2b a8 3d f3 28 3a 3d
       -0.9191171 0.16575758 0.082114026 0.04544921
000320 24 f4 b0 3d 97 6f 93 be b0 79 33 3e e7 bb 17 be
       0.08640316 -0.28796074 0.17526889 -0.14817773
000330 34 9a ec be 75 3c 36 3f 68 13 b9 bc d5 fa e5 bd
       -0.46211398 0.71186 -0.022592261 -0.11229483
000340 44 ad df bb 6f 19 16 be f1 ae 38 be 47 8c e5 bc
       -0.006826075 -0.1465814 -0.18035485 -0.028020991
000350 90 40 9d be 0b b0 d9 be ed af 8c be 09 79 10 bc
       -0.3071332 -0.42517123 -0.2747797 -0.0088179195
000360 c7 77 d1 bc 38 57 85 3e 3c 94 3e be 8d c5 34 be
       -0.02556981 0.26043105 -0.18611234 -0.17653485
000370 be 06 e3 be 37 e0 50 3e fd c9 c4 bc 0d ea 19 3e
       -0.4434108 0.20398031 -0.024022097 0.1503069
000380 ec 7f 89 3e d1 f3 0d 3e de 27 cd 3e 6a fc c9 bd
       0.2685541 0.1386254 0.4006948 -0.09862597
000390 52 76 52 bd 5a ae 94 bc 64 74 14 3e d3 03 1a be
       -0.05138237 -0.018149544 0.14497524 -0.15040521
0003a0 60 79 46 be 64 f8 ad 3e 87 22 f0 be 01 5f 1c 3e
       -0.19382238 0.3397857 -0.46901342 0.15270616
0003b0 47 4a 93 bd e5 fa 12 3f b3 a0 7a be d8 05 9f 3d
       -0.07191902 0.57414085 -0.24475364 0.077647865
0003c0 ee c0 e5 bd 25 02 36 3e 03 c9 03 be 58 7f 81 be
       -0.11218439 0.17774256 -0.12869649 -0.25292468
0003d0 fb 7e a2 be 37 3d 77 3e 8c fc 9e 3e 24 ec ed 3e
       -0.31737503 0.24144445 0.31052053 0.46469223
0003e0 f9 8e 15 3c 63 5b 0a 3e 82 23 ac 3d fd c7 59 3e
       0.009128326 0.13511424 0.0840521 0.21267696
0003f0 1c 35 9a 3b 8c 1c 65 3e 8d 33 ee bd c3 92 55 3e
       0.004706038 0.22374171 -0.11630926 0.20856766

fc1.bias f4 [400]
000000 d4 94 0f be a7 2f 09 be f3 29 04 be ab 3c 9c be
       -0.14021617 -0.13397084 -0.12906627 -0.30515036
000010 87 e1 04 bf 39 83 a4 be e5 4f 2d be d9 0f 67 be
       -0.5190663 -0.32131365 -0.16925009 -0.22564639
000020 91 27 97 be ca 89 b6 be 51 a4 9e be 84 55 54 be
       -0.29522374 -0.35652 -0.30984738 -0.20735747
000030 0f 2b d7 be b2 11 6a 3d 15 1f 43 bd b6 ce 2f be
       -0.4202504 0.05714578 -0.047637064 -0.17168698
000040 af 03 a2 3d ee 55 85 be 92 57 10 be 47 37 18 3d
       0.07910859 -0.26042122 -0.14095905 0.03716209
000050 57 3f 28 be 75 c4 c8 3d d9 64 dc be d0 46 01 be
       -0.16430412 0.09803096 -0.4304569 -0.12624669
000060 08 33 ff bd bc f5 cd be 65 a6 85 be fa 37 f1 be
       -0.12460905 -0.40226543 -0.2610351 -0.4711302
000070 70 f0 0a bf f7 2b 58 be 27 8d d4 be f8 54 8f bd
       -0.5427313 -0.21110521 -0.4151394 -0.069986284
000080 43 7e 2b be 41 9d 85 3d c9 9d d6 be 5a 1e cb be
       -0.16747384 0.065241344 -0.41917256 -0.39671594
000090 64 6f 91 be fe 1c ce be 67 fc 86 bc ad bd 86 be
       -0.28405297 -0.40256494 -0.016477777 -0.26316586
0000a0 4a c9 9a bd 9a 97 0d bf 7b 33 0b bf bd 7b c1 bd
       -0.07557924 -0.5530945 -0.5437543 -0.09447429
0000b0 17 0c 6e be 27 31 2b be 58 b5 43 3c 98 c9 2f be
       -0.232468 -0.16717969 0.011945091 -0.17166746
0000c0 0c b8 af bd b9 35 bf bd 3d 55 10 be 57 ed 1f be
       -0.08580026 -0.09336419 -0.14095016 -0.15617882
0000d0 fa cc 48 be 27 17 b3 be ef 68 6e be 68 12 6a be
       -0.19609442 -0.349786 -0.23282216 -0.22858584
0000e0 48 ec a0 be 3e e8 cf 3c ef 0a 0a be 25 06 1b be
       -0.31430268 0.025379296 -0.13480733 -0.15139063
0000f0 49 6b 91 3b c8 b6 44 be 5d 22 58 be bf dc 02 bc
       0.004437838 -0.1921035 -0.21106859 -0.0079872
000100 da 29 4a 3e e9 5b 31 3d 37 64 5c 3d 8f 4e 2d bd
       0.19742528 0.043300543 0.05380651 -0.042311247
000110 a5 44 71 be 32 50 d0 bd f7 42 8d be ca 57 b4 3d
       -0.23561342 -0.10171546 -0.27590153 0.08805807
000120 bd 80 b4 be e1 7a b1 3d 6a 45 81 be c9 2d 67 be
       -0.3525447 0.086660154 -0.2524827 -0.2257606
000130 bd d5 f8 be 58 ab 5e be 5b 50 06 3d b8 d0 f2 bd
       -0.4860057 -0.2174505 0.032791477 -0.11856216
000140 e8 1c 57 3d 2b 43 4e be d2 61 78 be 67 c9 36 3d
       0.0525178 -0.2014281 -0.24256065 0.044625666
000150 7d 11 a9 be db 95 80 be aa 8f 01 be 6c 9c 31 be
       -0.33021155 -0.2511433 -0.1265246 -0.17344826
000160 e3 49 32 bf 87 2c b4 be 45 13 f6 be 68 8d 64 be
       -0.6964399 -0.35190222 -0.48061576 -0.22319567
000170 f2 b5 d2 3d be 43 20 be 23 9e d8 be 88 7b 84 3e
       0.102886096 -0.15650842 -0.4230815 0.25875497
000180 49 21 c4 be 01 c7 02 be 5b a4 82 bd 9a 9e 68 be
       -0.38306645 -0.12771226 -0.063790046 -0.22716752
000190 8f 66 84 be 80 76 00 3e e3 56 b3 3c f3 70 11 be
       -0.25859496 0.12545204 0.021892017 -0.14203243
0001a0 14 e2 19 be dd 97 d1 3d 29 48 e8 bd d7 21 a3 bc
       -0.15027648 0.10234044 -0.113418885 -0.019913597
0001b0 0b 35 a2 bc b3 4c 87 be e8 95 a2 be f0 ae b5 be
       -0.019800683 -0.26425704 -0.31754994 -0.3548503
0001c0 4f 1a f5 be 6e e8 d1 bd 71 7f 82 be 35 f3 89 be
       -0.47871634 -0.102494106 -0.25487855 -0.26943365
0001d0 1d 60 3d 3e 2a e2 2b be 26 1f 0f be ab 5e 81 be
       0.18493696 -0.16785493 -0.13976726 -0.25267538
0001e0 f1 f5 c9 bb 72 45 75 bd f0 88 d7 be d6 ee 95 be
       -0.0061633517 -0.05988068 -0.42096663 -0.2928378
0001f0 04 65 cd be 3b 61 65 be aa 57 4c be 58 13 7a be
       -0.4011613 -0.22400372 -0.19955316 -0.24421442
000200 ec 22 cf be 5c a2 05 bf 01 31 92 be ce 7f f8 3d
       -0.4045633 -0.52200866 -0.28553012 0.12133752
000210 22 51 d9 be 39 b7 5d be c0 a6 9c bd 6a 33 09 be
       -0.42444712 -0.21651925 -0.076489925 -0.13398519
000220 18 5b a4 be 6f eb e2 bd a0 a7 97 be 54 44 ed be
       -0.3210075 -0.11080062 -0.29620075 -0.46341193
000230 82 63 3e be 69 86 4f be 10 c8 7b be da 90 05 bf
       -0.18592647 -0.20266117 -0.24588037 -0.5217415
000240 cc 65 86 be b6 51 97 bd a8 15 f4 be 3e 72 7f be
       -0.2624954 -0.07388632 -0.47672772 -0.24945924
000250 41 6a 1f 3e 7e 1a 89 3d 24 1e c5 be 74 3a 17 be
       0.15567876 0.06694506 -0.38499558 -0.14768392
000260 91 2f d6 be 84 53 fa be 7d 81 9f be 92 56 74 be
       -0.41833165 -0.48891842 -0.3115348 -0.23861149
000270 b2 ca 49 be 5b ba 67 be 3f 95 5a bc da 15 e4 bd
       -0.19706228 -0.22629683 -0.013341247 -0.1113698
000280 3e d2 bc be ae a8 8f be de 53 fd be 46 57 99 be
       -0.36879152 -0.2805838 -0.49478048 -0.29949397
000290 c2 04 aa be 8f ee aa be 80 df ab be 30 1d 92 be
       -0.33206755 -0.3338513 -0.33568954 -0.28537893
0002a0 f9 05 a1 be 0c 6c 3c be 47 94 7f be 25 57 c0 3a
       -0.3144987 -0.18400592 -0.24958907 0.0014674409
0002b0 ba f4 93 be 15 02 69 bd 5f 20 df be c5 09 6f be
       -0.2889765 -0.05688675 -0.43579385 -0.2334357
0002c0 2f 73 9a be 96 c8 48 be 46 01 91 be e4 83 38 be
       -0.30166003 -0.19607767 -0.28321284 -0.18019062
0002d0 42 af 57 be 52 e3 84 be 3e 45 69 be 30 c4 b1 be
       -0.2106295 -0.25954682 -0.2278032 -0.34719992
0002e0 b6 ed 0e be 6f 36 ac be 1b 46 1a be c0 7f e3 bd
       -0.13957867 -0.3363528 -0.15065806 -0.11108351
0002f0 7a 18 14 bf ff 18 dd be b9 7d 9c be e9 d3 4e be
       -0.5784985 -0.43183133 -0.3056467 -0.20198025
000300 19 5f a1 bd 65 83 57 be 80 5f a6 be 3e b5 b4 3c
       -0.078794666 -0.21046217 -0.32494736 0.02205908
000310 5c 36 a6 be f7 96 d2 be 2f b3 d1 be 34 65 f1 bd
       -0.32463348 -0.41130802 -0.4095702 -0.11786881
000320 92 ba 9e bd b6 12 be be e2 9e 95 bd e5 72 63 bc
       -0.07750429 -0.3712365 -0.07305695 -0.013882373
000330 56 6e 84 be 5a 5e 79 be f1 d1 b8 be 4a 75 25 be
       -0.2586543 -0.24352399 -0.36097673 -0.16158023
000340 cb 78 95 be f0 b7 41 be 45 b3 76 be 21 7f 82 be
       -0.2919372 -0.18917823 -0.24091823 -0.25487617
000350 99 65 8f be 99 99 32 be 86 df ff bd 20 0e e8 bc
       -0.280072 -0.17441405 -0.124938056 -0.028327048
000360 0d c2 0e be 7c 9b 75 3e c2 44 c9 be 01 ee 72 be
       -0.13941212 0.23985094 -0.3931027 -0.23723604
000370 2b 03 b7 be 29 ed 5c be 5f 3e e1 be 4e 9e 16 be
       -0.35744604 -0.21574844 -0.43992898 -0.14708826
000380 c6 55 72 be 41 0b bf be 2b eb 24 be bd 03 b5 bd
       -0.23665532 -0.37313274 -0.16105334 -0.08838604
000390 63 83 5a be 4b d4 ac be 29 10 a5 be a6 6c d7 be
       -0.21339183 -0.33755717 -0.32238892 -0.4207508
0003a0 8e f6 b2 be 34 45 a0 bd 51 f0 27 3e aa d9 63 3d
       -0.3495373 -0.078256994 0.16400267 0.055627503
0003b0 b8 33 25 3e 12 e5 8e be 9f 97 71 be db 78 19 be
       0.1613301 -0.27909142 -0.23592995 -0.14987509
0003c0 b5 a8 f3 bd 28 23 83 be e3 f1 08 be 11 77 34 be
       -0.11897413 -0.2561276 -0.13373522 -0.17623545
0003d0 d1 6d 84 be 40 00 52 be 67 a5 38 be fe 13 d6 be
       -0.25865033 -0.20507908 -0.18031846 -0.41812128
0003e0 d8 cd 55 be 5f a9 9b be 14 4f 06 bd ec 74 86 be
       -0.20879304 -0.30402657 -0.03279026 -0.2626108
0003f0 0e 39 be be cf 05 45 be eb fe 4d be f3 f1 49 be
       -0.37152904 -0.19240497 -0.20116775 -0.19721203

fc2.weight f4 [300, 400]
000000 bf bc 75 be 86 d0 04 be 9c 28 55 3e d1 be 62 3d
       -0.23997782 -0.1297017 0.20816272 0.055357758
000010 eb e7 63 be 4a dd 43 bd d8 4b 88 be cf da 21 bf
       -0.22256438 -0.04781846 -0.26620364 -0.632245
000020 a1 0e 80 3e d9 4d ec bd 1b b4 d8 bc fe 93 29 3e
       0.2501116 -0.11538286 -0.026453068 0.16560361
000030 c1 da 8d 3e d2 81 af be c1 e6 9c be 38 35 e4 3d
       0.27705958 -0.34278733 -0.306448 0.11142963
000040 93 16 0a bf 78 5a 0c bf a8 4a 43 bf c2 11 70 be
       -0.53940696 -0.54825544 -0.7628579 -0.23444274
000050 db 16 b9 3e 34 ba ef be da 62 09 bc 97 1a 68 3d
       0.3615025 -0.4682175 -0.008385384 0.056665983
000060 94 8a 4e 3e 3e 68 f5 be 27 65 ce be c1 5c 0c 3e
       0.20170051 -0.47931093 -0.40311548 0.13707258
000070 92 db dc bd 0b 2d ec 3d d8 93 6c 3e 7d d6 0e bd
       -0.10784067 0.11532029 0.23103273 -0.03487252
000080 77 1b ba be e1 91 2e 3e 6b 6a 2c bf 54 11 85 bc
       -0.3634908 0.17047836 -0.6734988 -0.016243614
000090 e4 73 40 be c1 fe 23 3c a3 a9 d0 be 13 b6 e1 bc
       -0.18794209 0.0100094685 -0.40754423 -0.02755264
0000a0 08 cc 12 bf af aa bb be 3d 15 42 be 18 76 1f 3e
       -0.57342577 -0.3665366 -0.18953414 0.15572393
0000b0 3b 56 07 bd ab 4b e8 be c1 e3 8f 3d 3a e4 11 bd
       -0.03304122 -0.4537023 0.070258625 -0.035618044
0000c0 3a 6a e0 bd 6f de 59 be 73 be be bd 10 48 d8 bd
       -0.10957761 -0.21276258 -0.09313669 -0.1056062
0000d0 3b 72 0d 3e 98 82 cd 3c 2d 19 b7 bd f7 04 6c be
       0.13813107 0.025086686 -0.08940349 -0.23048769
0000e0 f1 e7 26 bf 44 a3 02 bf 98 32 c6 3d f0 84 c2 be
       -0.65197664 -0.51030374 0.09677619 -0.37992048
0000f0 b4 fe 50 be 05 d7 cb 3e ab 10 14 bf 47 93 a0 bd
       -0.20409662 0.39812484 -0.57837933 -0.07840591
000100 da 81 a2 3c 47 be f3 3d ae 5a b1 be 65 4c d4 bc
       0.019837309 0.11901527 -0.34639496 -0.025915334
000110 49 b1 90 3e 00 0e 96 be fe 2b 54 be 6d 51 03 bf
       0.28260258 -0.29307556 -0.20719907 -0.5129612
000120 b4 da 1b be 3c c0 1a be 74 42 f2 bd b8 a6 52 bf
       -0.15220147 -0.15112394 -0.11829081 -0.8228564
000130 0d de 4e 3d 9b b1 1a 3e 09 18 c5 bd 9b 4c 9c bd
       0.050504733 0.15106814 -0.09623725 -0.07631799
000140 59 2d fb be 79 5e 0d bd 96 50 e8 bd bd a1 7b 3d
       -0.49058035 -0.034513924 -0.113434955 0.061433543
000150 55 59 3d 3d a3 0f f3 bd a8 d2 91 be c7 68 b9 3e
       0.04622777 -0.11868217 -0.2848103 0.3621275
000160 6c b9 5d bd ed 39 e9 bd 88 2e ec 3e 23 0e b1 3e
       -0.05413191 -0.113880016 0.4612925 0.34581098
000170 68 b2 a3 3d 2a 16 33 3e fa 2e db be 91 83 9e be
       0.07993013 0.17488924 -0.42809278 -0.30959752
000180 7e 6a 04 3e a5 55 61 be 7f 9e fe bd d7 28 87 bc
       0.12931249 -0.22005327 -0.124325745 -0.016498966
000190 f2 f8 89 bd e0 3d 84 be f2 7f 32 bd a6 0f 97 3e
       -0.06736936 -0.25828457 -0.04357905 0.29504126
0001a0 52 5c d0 be ee f0 67 be 1e ac d0 bc c5 b9 d0 be
       -0.40695435 -0.22650501 -0.025472697 -0.4076673
0001b0 38 45 3c bf e1 e5 e4 be ff 5f d0 3c 87 a0 51 be
       -0.7354312 -0.44706634 0.0254364 -0.20471393
0001c0 2d 2e 0e 3e 37 31 0a 3e 3c 8a 46 bf a9 c6 4e be
       0.13884802 0.13495336 -0.7755468 -0.2019297
0001d0 38 06 69 3e 46 e3 13 3e ab f1 cc be 1d 99 e9 3d
       0.22756279 0.14442167 -0.40028128 0.11406157
0001e0 9e c0 9c bd 95 2f 9a 3d b1 e0 83 bf 5d c9 6e be
       -0.07653926 0.07528607 -1.0302945 -0.23319001
0001f0 50 a8 d2 bd 5b a0 56 3c cf c6 ca bd b0 17 e9 3d
       -0.10286009 0.013099755 -0.09901201 0.11381471
000200 71 49 2e be 0a 27 22 3d 9b 4a 37 be 52 9a 00 3b
       -0.17020203 0.03958801 -0.17899553 0.0019623232
000210 ad b0 60 3e e1 90 58 3e 75 b8 d7 bc 2c 41 bb be
       0.21942396 0.21149017 -0.026333073 -0.3657316
000220 05 ea 8b 3d d6 73 61 bc 66 2c 14 be 7a 7d 89 bf
       0.06831745 -0.013760528 -0.14470062 -1.0741417
000230 ee 0f 38 3e 1b 57 8e be 35 02 a1 be 53 33 a6 3e
       0.17974827 -0.2780083 -0.31446996 0.32461032
000240 a3 f1 52 be b8 dc 20 bf 6e 37 35 bf d1 19 43 3e
       -0.2059999 -0.6283679 -0.70787704 0.19052817
000250 ad 3a 33 3e 8f 63 c3 bd ed e7 a1 bd 8a 06 32 bf
       0.17502852 -0.09540474 -0.079055645 -0.6954123
000260 51 75 37 3e f9 af 33 bf 90 68 c4 be 8f 01 5a be
       0.17915846 -0.7019039 -0.38361025 -0.21289657
000270 77 03 0e be 17 eb 31 bd 3e 7d db be e8 aa 37 be
       -0.13868509 -0.04343709 -0.4286899 -0.1793629
000280 de 1d 0b bd f2 88 a5 be d0 78 a0 be 95 f3 c9 3d
       -0.03396403 -0.32331043 -0.31342173 0.09860913
000290 39 b7 90 3d 9c 24 a7 be a9 a2 3b 3e 70 8e ea 3d
       0.07066197 -0.32645118 0.18323769 0.11452949
0002a0 97 88 b8 3e 43 8e 37 be ef f8 e3 bd 3e 11 c3 be
       0.3604171 -0.17925362 -0.11131465 -0.38099092
0002b0 1b 5c 51 be 40 c3 1f 3e cb a1 54 bd 60 05 86 3e
       -0.20445292 0.15601826 -0.05191211 0.26175976
0002c0 8f 1e ac be 71 da 2c be 99 49 0c be 1c 42 81 3e
       -0.33617064 -0.16880204 -0.1369995 0.2524575
0002d0 e8 66 bd be 69 2c 3a 3e 64 3d 3b bd a8 3c 4a bf
       -0.36992574 0.18181004 -0.045712844 -0.78998804
0002e0 5a b9 70 3c a8 4d eb be 9b cf 44 bf 51 6f cf be
       0.014692629 -0.45957685 -0.7687928 -0.40514615
0002f0 54 c3 a0 be e6 68 7f 3d 07 0d 4c 3e 6f c8 85 bb
       -0.31399024 0.0623559 0.19926845 -0.0040827314
000300 5e f0 21 be b1 93 01 3c bb e9 e7 bd a4 d2 91 be
       -0.15814349 0.0079087475 -0.113238774 -0.2848102
000310 20 05 6d 3d ea 69 22 bd 1e c5 5f 3e bc 4e 3e bd
       0.057866216 -0.03965179 0.21852538 -0.046461806
000320 5c 1f ec be e8 73 02 bd cb 07 5c be 51 33 f8 be
       -0.46117675 -0.031848818 -0.21487348 -0.4847665
000330 2f a7 2e 3e 49 3d 05 bf 7a 51 5d 3d 65 4f 1d bf
       0.17055963 -0.5204664 0.05403278 -0.6144927
000340 cb cc 47 be 5a a6 9b 3d 1a 68 76 bd 72 b4 58 3d
       -0.19511716 0.076000884 -0.060157873 0.05290646
000350 ee 30 8d 3e 5d dc b4 be 40 37 d8 3d aa 4b b9 3e
       0.27576393 -0.35324374 0.10557413 0.3619054
000360 e0 c3 a0 3e 7b bc 9e be f6 a8 27 be 87 cc 40 3e
       0.3139944 -0.31003174 -0.16373047 0.18828021
000370 b5 c1 76 be 3c 3d c7 be aa e3 0f bf a6 a1 18 bf
       -0.24097331 -0.38913906 -0.5620676 -0.59621656
000380 f2 22 82 be 19 1a a5 be 60 50 25 3e 68 3a 4e bd
       -0.25417286 -0.32246473 0.16143942 -0.05034867
000390 e7 55 e2 bc 46 54 13 3e d0 a9 0b be d8 25 ac 3d
       -0.027628852 0.14387617 -0.13638997 0.084056556
0003a0 28 a8 05 3e eb 0e 16 3d 2b d2 8b bd bc db 21 3d
       0.13052428 0.03663532 -0.06827196 0.039516196
0003b0 60 47 1a be 0e c8 10 3e ba 42 b4 bd 29 78 9c be
       -0.1506629 0.14138815 -0.088017896 -0.30560425
0003c0 f3 71 9c be d5 89 99 bd 22 b2 5f 3c a4 0c 98 be
       -0.30555686 -0.074969925 0.01365331 -0.29697144
0003d0 ac 7f 68 be 67 db f9 bd f8 99 08 3e cc 0a 93 3c
       -0.22704953 -0.12200051 0.13339984 0.017949484
0003e0 c2 ec 68 3d ca 93 4f 3d 92 a1 64 bd 19 07 8d 3e
       0.056866415 0.050678052 -0.055818148 0.27544478
0003f0 ab 5b 48 3e 7f ec 0f be 4e 9a 43 3e e7 b1 3c bf
       0.19566219 -0.1405506 0.19101831 -0.7370896

fc2.bias f4 [300]
000000 45 85 60 3c 6b 04 73 3b 13 b7 76 bc f5 82 14 be
       0.013703649 0.003708149 -0.015058297 -0.14503081
000010 46 45 ce be 74 de 0d bd 91 fa a9 bd ba ab 20 bd
       -0.40287226 -0.034635976 -0.08299745 -0.03922627
000020 dc 96 0c be 4b b2 a2 be bb 5b 9c 3e 7b f2 aa be
       -0.13729423 -0.31776652 0.30538735 -0.33388123
000030 5a ba 8e bd 5e b8 14 bc c0 39 ef bd 00 f6 14 be
       -0.069691375 -0.00907716 -0.11680937 -0.14546967
000040 bc b0 c7 be 61 bb 4f be 6c c7 7c be 04 26 a0 be
       -0.39002025 -0.20286323 -0.24685448 -0.31279004
000050 de 00 44 3d 1f f9 60 be f9 01 30 be 91 71 4c be
       0.04785239 -0.21970032 -0.17188253 -0.19965197
000060 9f 86 59 be 02 63 ea be 31 18 01 bf c1 bf d7 be
       -0.2124276 -0.45778662 -0.5042754 -0.42138484
000070 d8 18 cf be 1d 9a 8a bd 17 f6 4a 3d e1 b0 e2 3d
       -0.40448642 -0.06767676 0.049551096 0.11068893
000080 9a 33 b5 3c e5 de c3 3d 1c 7c 0f bf 80 3d 81 bd
       0.022119332 0.09563998 -0.5604875 -0.06310558
000090 8d a8 99 be 5b 27 2c bc 9a 9a f7 bd 93 c8 2d 3e
       -0.30011407 -0.01050743 -0.12090035 0.16971044
0000a0 f3 37 70 bc fc 48 15 be 99 72 72 3e 5b a5 ab 3d
       -0.014661777 -0.14578623 0.23676528 0.083811484
0000b0 91 ae 7b 3d 33 a8 23 be 75 fd 3d 3e 54 07 08 bd
       0.061445776 -0.15982132 0.18553717 -0.033210114
0000c0 55 07 62 be 87 2c 72 be 46 1b 50 be fd 4c a7 bd
       -0.2207311 -0.23649798 -0.20322904 -0.08168981
0000d0 64 a8 ac be 7e 7d 8c be 88 01 ae be b2 4f 78 be
       -0.33722222 -0.27439493 -0.33985543 -0.24249151
0000e0 f9 d3 e7 be 04 97 98 be f0 9e 07 be 90 3e c9 be
       -0.4527891 -0.29802716 -0.13244224 -0.39305544
0000f0 ee 56 59 be dd 7f 3e be e1 be 24 be a7 61 01 bf
       -0.21224567 -0.18603463 -0.1608844 -0.5053963
000100 68 ac 22 bd 9f bf 21 3c a8 97 e5 bc 3d 34 b1 be
       -0.0397152 0.009872346 -0.028026417 -0.34610167
000110 ed c9 cf be b7 44 0c bf d7 eb 99 3d 6c c0 66 bd
       -0.40583745 -0.5479235 0.07515686 -0.05633585
000120 3d ea a8 bd 85 52 de bd dc 31 60 bd 3f 48 cc be
       -0.082478024 -0.10855583 -0.05473505 -0.3989887
000130 2e 8d 33 bd c8 23 ad be d5 06 4b bd da 44 81 be
       -0.04383581 -0.3381636 -0.049567062 -0.25247842
000140 4e e3 81 3d 7d 2e 7d be 0c 8f ad bd a3 82 af 3c
       0.06342183 -0.24724765 -0.0847455 0.021424597
000150 d1 30 48 bd 3e 04 d4 bd 70 65 5b 3b e9 55 ce be
       -0.04887468 -0.10352372 0.003347721 -0.4029992
000160 a7 28 ae bc f2 82 b5 3c 4a 4c a1 be f3 d6 57 be
       -0.021259619 0.022157166 -0.31503516 -0.2107809
000170 b6 39 2c be 22 26 02 bf 61 bb 36 be c8 35 34 be
       -0.1681889 -0.50839436 -0.17844917 -0.17598641
000180 d9 55 e5 bc 6e 05 ec 3d 23 db b6 bb 69 b1 90 be
       -0.027995037 0.11524473 -0.0055803224 -0.28260353
000190 11 8c 0f be 49 1a c6 be 17 7b d4 be ea cb 00 bf
       -0.14018275 -0.3869193 -0.4150016 -0.5031115
0001a0 81 62 f4 bd 1e 6e 3e bb b6 81 91 be b7 7a b2 be
       -0.11932851 -0.0029057334 -0.28419274 -0.3485925
0001b0 ea f1 56 be 1c 46 d5 3c 54 26 a1 bd 21 6e a8 be
       -0.2099072 0.026034407 -0.07868639 -0.32896522
0001c0 27 33 0d be 4f fb 11 be b5 51 14 bf 19 69 c0 be
       -0.13789044 -0.14256023 -0.57937175 -0.37580183
0001d0 76 56 e4 3d 1f 58 00 bf 8e 47 e8 be 5b 11 5b be
       0.111493036 -0.5013446 -0.45367092 -0.2139334
0001e0 f6 6a 34 3e 3e 41 c7 bc 1f 6b 7e bd 2f 71 1f bd
       0.17618927 -0.024323102 -0.062113877 -0.0389263
0001f0 00 4b da 3a e5 35 49 be 12 56 07 bd 3f 97 c2 bd
       0.0016654432 -0.19649465 -0.033041067 -0.09501504
000200 62 65 a6 be 19 ce 4d bc 26 a3 43 3e 3f 11 46 be
       -0.32499224 -0.012561345 0.19105205 -0.19342516
000210 ec 66 da 3d 94 e2 d6 be 14 20 6f be 41 29 85 be
       0.10664162 -0.4196974 -0.2335208 -0.26008037
000220 ea f3 e0 bd f0 65 bf be 39 ee 08 be 8d 3c b3 bd
       -0.10984023 -0.3738246 -0.13372125 -0.087517835
000230 20 af 85 bd 8f 22 11 be 56 d0 fb bc 92 75 e6 bd
       -0.06527543 -0.1417334 -0.03073899 -0.112528935
000240 9e e0 28 bf d1 e1 ad be 5d 59 aa be a6 61 bc bd
       -0.6596774 -0.33961347 -0.33271304 -0.091983125
000250 0c f5 f1 bc 08 01 0c bf 73 cc 83 be c5 7a e3 bd
       -0.029535793 -0.54689074 -0.2574192 -0.11107401
000260 5b 1a 9c bd ea be b3 be 34 54 7b be 52 70 06 3e
       -0.076222144 -0.35106593 -0.2454384 0.13128784
000270 c5 8e ca be bf 47 76 be e2 d7 cb be 58 d2 8b be
       -0.3956205 -0.24050806 -0.39813143 -0.27308917
000280 7a e4 65 3d 56 f7 02 bf c4 3f 09 bf f2 8c 48 be
       0.056126095 -0.51158655 -0.53612924 -0.19585016
000290 c6 12 3c be d8 4a 12 3c 8e 50 9b 3d 82 0c e2 3b
       -0.18366536 0.008928977 0.07583724 0.0068984637
0002a0 5e 87 34 3e 1d a9 9a be ae f6 2a 3d 0b bf 85 bd
       0.17629763 -0.30207148 0.04173916 -0.06530579
0002b0 e6 ba e2 bd 21 01 08 be 2d b6 93 be 87 5e df be
       -0.11070804 -0.1328168 -0.28849927 -0.43626806
0002c0 fe f5 d2 bd 40 e7 16 bf 5a f2 61 bd 56 0b 00 bf
       -0.103008255 -0.5894661 -0.055162765 -0.500173
0002d0 0a 2f 08 3c 8f 43 bd be e9 5e e5 3d bd bb a8 3c
       0.008311996 -0.36965606 0.11199743 0.020597333
0002e0 3f b7 a9 be 93 41 3c be fd da 83 be f6 80 07 bc
       -0.33147618 -0.1838439 -0.25753012 -0.008270493
0002f0 0b 35 a2 be 04 5e 10 bf 5b f8 07 bf 9e 42 32 3d
       -0.31681094 -0.56393456 -0.53113335 0.043520562
000300 e1 d5 b2 be 2d 6d 23 be c8 40 d3 be 26 ca 0b be
       -0.34928802 -0.15959616 -0.41260362 -0.13651332
000310 fe 1d e9 be fa de 72 be 69 89 ae be 7f 9a 4e be
       -0.45530695 -0.23717871 -0.3408921 -0.20176123
000320 20 dc d3 3d 07 78 2b be 44 24 80 be f9 dc 33 be
       0.1034472 -0.16745006 -0.25027668 -0.17564763
000330 75 d3 0b bf 4c f6 c6 bb c7 d4 7e be e7 61 02 3e
       -0.5461953 -0.0060718413 -0.24885856 0.1273266
000340 2a 13 71 bd cf d6 73 bd fc 15 a9 bd 85 27 fe bc
       -0.058856167 -0.05953103 -0.08256146 -0.031024704
000350 1d 39 1a bf d7 18 67 be 1f 7d b2 be 8c 5a 8a 3d
       -0.602434 -0.2256807 -0.34861085 0.06755552
000360 2d af be 3c 99 4f ab be 8c ef 31 3e 5c 70 fb bd
       0.02327689 -0.33459166 0.17376536 -0.1227729
000370 96 f3 d8 be 8c e4 a0 bc 20 30 a7 be 77 a4 58 be
       -0.4237334 -0.01964023 -0.32653904 -0.21156488
000380 79 aa 50 be ba 9e cb be cd 66 08 be 7e 3f dc 3c
       -0.2037753 -0.39769536 -0.13320465 0.026885744
000390 8b 66 72 be 2e 51 fc bc d1 f9 29 3c 02 31 65 be
       -0.2367193 -0.030800428 0.010374502 -0.22381976
0003a0 ef 67 1f be 9c 28 1c be 1c 38 53 bd 1e 82 b0 be
       -0.15566991 -0.15249866 -0.051567182 -0.34474272
0003b0 53 17 33 bd 82 74 c9 be 19 5b 11 be fb 94 b4 be
       -0.043723416 -0.393467 -0.14194907 -0.35269913
0003c0 3f c9 15 be c2 d2 b2 be 24 91 3d 3e 15 38 74 bd
       -0.1462755 -0.3492642 0.18512398 -0.059623796
0003d0 3f 77 78 be 9e a5 60 be e0 f1 9c 3b a2 31 d0 be
       -0.24264239 -0.21938178 0.004789576 -0.40662867
0003e0 88 1e 9f be cc 8d 84 3e 1b 17 78 be 09 45 82 b9
       -0.3107798 0.25889432 -0.24227564 -0.00024846967
0003f0 e1 08 da bd 5d bd 42 3e 9d 09 55 3d 06 7b e2 be
       -0.10646225 0.19017549 0.05201112 -0.44234484

fc3.weight f4 [2, 300]
000000 ac d0 1f 3e 36 9b b2 bf 60 a9 c9 3e f5 22 46 be
       0.15606946 -1.3953617 0.39387035 -0.19349273
000010 2f fb 3f 3e b3 d0 09 3e 4c b2 94 3e e2 d7 5b bd
       0.18748163 0.13458519 0.2904228 -0.05367268
000020 ed cf b8 3e 60 60 a8 be 1c 5c 62 3f 29 d1 03 3b
       0.36096135 -0.32886028 0.884218 0.0020113683
000030 fd 6e f6 3e ad a3 96 bf 38 f0 58 3f 50 50 83 be
       0.48131552 -1.17687 0.84741545 -0.2564721
000040 f1 45 79 3e c9 ec 25 bf cc 5d 1c bf 6e f1 3e be
       0.24343087 -0.6481443 -0.6108062 -0.18646786
000050 38 2c e5 3e 1f e9 89 3d 75 e9 1b 3e 2d 5d 9c bd
       0.447603 0.067339174 0.15225776 -0.07634959
000060 be ea 6f be 0b 81 8a 3d 2f 54 d8 be f6 d9 4a 3d
       -0.23429391 0.06762894 -0.42251727 0.04952427
000070 cd 3f 2d 3f 84 8a 9c 3e 54 97 89 bf ab 73 b8 ba
       0.6767548 0.3057443 -1.0749307 -0.0014072558
000080 b7 dc 36 bf 1d dc 72 bf ce 3c 9d bf 53 29 8e 3e
       -0.71430534 -0.94867116 -1.2284181 0.27765903
000090 04 44 6d bb 98 bd 27 3f 5e aa 6b 3f 02 18 1b 3b
       -0.003620387 0.6552367 0.92056835 0.0023665433
0000a0 fa e8 16 bf c1 26 44 be e4 ac a0 bf 65 1e e9 3d
       -0.58949244 -0.19155408 -1.2552762 0.113827504
0000b0 0c 50 0a bf dc c3 5b bf 8d 09 49 bf 8c d5 9b 3d
       -0.5402839 -0.8584573 -0.785302 0.0760909
0000c0 5e f1 3c bf 1a be d5 bd 6e d0 67 bd de bf f6 3e
       -0.738058 -0.104366496 -0.05659526 0.48193258
0000d0 0d 1c db bc 21 0c 4a be 49 1d 84 3e 04 a1 2e 3f
       -0.026746774 -0.1973119 0.25803593 0.6821444
0000e0 86 af 9b 3e 95 14 20 3e 0c 64 82 3f 99 69 09 bf
       0.3040735 0.15632851 1.0186782 -0.53676754
0000f0 0e a6 7f 3e c0 c1 90 3e 22 f6 a6 3f 21 d4 28 3e
       0.24965689 0.2827282 1.3043864 0.16487171
000100 60 56 73 3e de 73 0c 3e 8d 9e a5 be 6b 01 98 bd
       0.23763418 0.13716075 -0.32347527 -0.074221455
000110 6e 35 9a be f1 82 a1 bd e1 83 89 3f 5a 0a e1 3c
       -0.3011889 -0.07886303 1.0743371 0.027470756
000120 5e 9b 0f 3e cd 3f b6 3c 71 6d 40 3e 91 2c 0a be
       0.14024112 0.02224722 0.18791749 -0.13493563
000130 07 cf 02 be 4e 18 42 3e c6 53 88 3f 06 0b 18 3e
       -0.12774287 0.18954584 1.0650566 0.14847955
000140 2c 6c b2 be bb 6c d4 bb 84 50 04 bd 6a 54 33 3e
       -0.34848154 -0.0064826882 -0.03230335 0.1751267
000150 a8 15 21 3f 7d af 19 bd 66 77 0b 3e 1f 60 5b be
       0.6292367 -0.037520874 0.13619766 -0.21423386
000160 70 bb 5d bf e6 43 0a 3f 02 48 70 3d 06 16 bd 3c
       -0.8661413 0.54009855 0.058662422 0.02308179
000170 07 7b 20 be 47 72 ba 3e 80 4a d7 3e 77 f7 20 bd
       -0.15671931 0.36415312 0.42049026 -0.0392985
000180 8d 5b 46 3c 03 66 99 be 7e 44 b0 bf e6 42 86 3e
       0.012106788 -0.2996064 -1.3770902 0.26222914
000190 bf 4e 5b be b2 03 b2 3e 00 34 57 bc e8 4f 92 3d
       -0.21416758 0.34768444 -0.013134956 0.07144147
0001a0 0f c6 f6 be 66 b9 1a 3e a0 d1 42 3f 9e 08 45 3f
       -0.48197982 0.15109786 0.7610111 0.76966274
0001b0 fe 67 ae be bd c3 63 be 50 c3 1e 3f f9 18 af bb
       -0.34063715 -0.22242637 0.62016773 -0.005343553
0001c0 f0 b8 bd be 55 59 71 3d f4 be 09 be a6 eb 22 3d
       -0.3705516 0.058923084 -0.13451749 0.039775513
0001d0 66 7a 49 3f 44 63 8e be 85 0e 06 be a0 82 13 bf
       0.7870239 -0.2781011 -0.13091476 -0.5762119
0001e0 5f 05 21 bf c1 fb 9d 3e 0d 83 8a 3d c7 e6 0f 3f
       -0.6289882 0.30856135 0.06763277 0.56211513
0001f0 89 b8 4e be 81 2e b6 be 86 a6 b2 be 63 86 de be
       -0.20187582 -0.35582355 -0.34892672 -0.43461904
000200 e4 e0 1a 3d 7f 35 8d bc 52 b3 eb 3e 53 3d 50 bf
       0.03781213 -0.017237423 0.46035248 -0.81343573
000210 37 91 25 3f 14 d7 ef be 22 51 64 3e e9 64 78 3f
       0.64674705 -0.4684378 0.22296575 0.97028977
000220 79 ff 8b bd ef b5 d9 3c 25 a4 02 3f d1 60 55 be
       -0.06835837 0.02657601 0.51031715 -0.20837714
000230 ba a0 e6 be 87 78 42 be c2 1a 08 3d 83 e5 12 bf
       -0.450445 -0.1899129 0.033228643 -0.5738146
000240 6a 7c 25 bf 5b c5 ea be cd 6f de bd 92 7f c9 be
       -0.64642966 -0.45853695 -0.10861168 -0.3935514
000250 41 6b 86 bf 89 86 6c 3e 18 86 8b 3e 7a 23 2c 3f
       -1.0501481 0.23098196 0.27250743 0.6724163
000260 41 b3 b8 3e 45 90 44 3d d5 57 08 3d c2 cc 49 3e
       0.3607426 0.04798915 0.03328689 0.19707015
000270 43 22 2a 3c e1 5d 5f bd 28 57 1d 3e 22 75 12 bf
       0.010384145 -0.05453289 0.15365279 -0.5720998
000280 37 7e 07 3e c9 f9 be 3e 0f fd a6 3c d7 56 3e 3e
       0.13231741 0.37299946 0.02038434 0.18587814
000290 9c 34 b0 3d 1a 89 86 3f b8 fe c6 3f 37 15 10 3f
       0.086037844 1.051059 1.5546484 0.5628237
0002a0 c4 6e 80 be 99 bb 41 bd a9 25 73 3d 54 14 33 3e
       -0.25084507 -0.047298048 0.059362087 0.17488223
0002b0 9b e6 19 be 89 fe 88 bf 75 5f 4a 3f 4a fe d0 be
       -0.15029375 -1.0702678 0.79051906 -0.40819007
0002c0 91 06 da 3e 0a 85 b2 3e 2f 63 55 3f 0c ce c2 3e
       0.42583135 0.34867126 0.8335447 0.38047826
0002d0 1a cc 50 3f 9d 50 71 3d 15 bd 8c be aa bf e6 3e
       0.81561434 0.05891477 -0.27488008 0.45068103
0002e0 87 65 27 3f 45 ff 91 3e e5 7a 09 3d 8c 71 2b be
       0.65389293 0.28515068 0.033564467 -0.16742533
0002f0 6a 15 82 3f 08 26 99 bd 36 dd da be 5c ef 84 3e
       1.0162785 -0.07477957 -0.42746896 0.25963867
000300 39 7f 56 3e ec 4b cd 3b 7d 1b 01 3e 2e b1 97 bd
       0.20946969 0.006265154 0.12608142 -0.07406841
000310 16 fe 76 3e e8 05 bf be a8 d5 02 3d 80 1d d3 3e
       0.24120364 -0.37309194 0.03194204 0.41233444
000320 f5 89 79 3e 68 8d 19 be 2f b6 5b 3e e0 84 5f be
       0.24369033 -0.14995348 0.21456216 -0.21828032
000330 c2 4a 94 3d 3f 82 ca bd b0 ea 8c bd 7a 6f 94 3e
       0.072408214 -0.09888124 -0.068807006 0.289913
000340 2c 35 6b be 84 4c c8 3e b6 81 68 be a1 ea 5c bf
       -0.22969502 0.39120877 -0.22705731 -0.86295515
000350 ba eb 18 bd 0f 7b 26 3f 4b 7b 17 bd ad a1 5c 3e
       -0.03733418 0.6503152 -0.036982816 0.2154605
000360 7c d4 cd 3e 47 c0 e1 3e 84 6f c2 be 96 a9 4b be
       0.40201175 0.44092008 -0.37975705 -0.1988891
000370 ba 75 0b 3f 30 fb 41 be 50 ef ce 3d 7b a6 95 bd
       0.5447651 -0.18943477 0.10104239 -0.07307144
000380 61 05 52 bf 96 ca fd 3d 42 79 70 3d 1a 1c 15 3e
       -0.8203946 0.12392156 0.05870939 0.14561501
000390 f0 30 59 be dd 04 ce 3e 39 e2 90 be 40 3b 3f bc
       -0.21210074 0.40238085 -0.28297594 -0.011671841
0003a0 01 f0 de 3e 0f b2 13 be 25 42 50 3e 6b 9f 7c bf
       0.43542483 -0.14423393 0.20337732 -0.9868075
0003b0 5e 69 8d bf d1 8e 12 bf b1 6b 00 3e c9 ac bb bd
       -1.104778 -0.5724917 0.12541081 -0.091638155
0003c0 3f a6 00 3f c9 fd 48 bf 84 09 2c 3f 40 ef 27 bf
       0.5025367 -0.78512245 0.6720202 -0.6559944
0003d0 0f d9 24 3f 85 e0 31 3f 92 26 68 3e f0 1a 37 3d
       0.64393705 0.69483215 0.22670963 0.044703424
0003e0 ba 64 5b be d9 0f 2b bf 26 d2 c8 bd 52 89 b8 be
       -0.21425143 -0.66821057 -0.09805708 -0.36042267
0003f0 b4 3c 6f 3f e6 93 1c be f5 f8 8d 3e f2 78 e6 be
       0.93452 -0.15290794 0.27729002 -0.4501415

fc3.bias f4 [2]
000000 51 ed c3 3c 8c 8d 8e 3e
       0.023916872 0.27842367

bn.weight f4 [24]
000000 be 8f 68 3e d9 78 a0 3e 61 49 d8 3d a1 62 5a 3e
       0.22711083 0.313422 0.10560871 0.21326686
000010 91 d2 e8 3e a7 a1 3b 3f 5b e4 e6 3d f7 f7 3d 3e
       0.4547315 0.73293537 0.11274024 0.18551622
000020 6b 69 09 3e 52 dd ca 3d 09 06 10 3e 27 e4 b3 3d
       0.1341912 0.09905495 0.14064802 0.08783751
000030 84 aa 8e 3e 02 e5 2c 3e e4 58 8a 3d 30 cb e0 3d
       0.27864468 0.16884235 0.06755236 0.10976255
000040 ff 7f 08 3f 3d b8 92 3e de bc 85 3e 0b 4b e2 3e
       0.53320307 0.28656188 0.26120657 0.44197878
000050 2f 88 37 3f ff d5 2c bf b5 ad 14 3d 73 13 c2 3d
       0.71692175 -0.6751403 0.036298472 0.09476366

bn.bias f4 [24]
000000 7e f4 07 3e e7 1f 25 bd 86 be 57 3e 06 93 80 3d
       0.1327686 -0.040313628 0.21068773 0.062780425
000010 4b fa ee 3e 50 56 1b be 0e a5 bc bd 64 85 b4 be
       0.46675333 -0.15169644 -0.09211169 -0.3525802
000020 af 33 04 3d 13 95 9d bd de 08 c5 bd 8e f2 9e bd
       0.03227585 -0.07694449 -0.09620832 -0.077611074
000030 4e 26 59 3e 4a 16 08 be 3b 1d 68 3d 58 ec bc bd
       0.21206018 -0.13289753 0.0566685 -0.092247665
000040 2e d9 3b 3d 35 93 bf be c0 af 81 3d 18 5f 88 be
       0.045861416 -0.37416998 0.0633235 -0.2663505
000050 85 51 f2 3e 6c c6 62 be 89 6e e5 3c 41 a1 eb bc
       0.4732782 -0.22146004 0.028006809 -0.028763415

bn.running_mean f4 [24]
000000 f9 a3 07 c1 9e 75 46 bf 75 86 74 3f b0 4a 1c 3d
       -8.477532 -0.7752322 0.95517665 0.038157165
000010 8d a3 06 3d 7d 7d 7a 40 75 86 74 3f b0 4a 1c 3d
       0.032870818 3.9139092 0.95517665 0.038157165
000020 11 4d 0a c1 aa f1 47 bf 56 6f 7a 3f f8 9b 59 3c
       -8.643815 -0.78103125 0.97826135 0.013281815
000030 23 0c 5f 3c a2 c9 7a 40 56 6f 7a 3f f8 9b 59 3c
       0.013613733 3.9185567 0.97826135 0.013281815
000040 18 45 0b c1 2c 13 48 bf 21 bd cd 3f e9 bc 80 bd
       -8.704369 -0.78154254 1.6073343 -0.06286032
000050 55 97 b1 3b 79 e3 78 40 21 bd cd 3f e9 bc 80 bd
       0.0054196515 3.8888838 1.6073343 -0.06286032

bn.running_var f4 [24]
000000 ad cb 34 41 02 a7 8e 3f a0 b3 a8 43 33 9f 47 41
       11.299726 1.1144717 337.40332 12.476367
000010 4d 34 e8 41 bc 77 29 40 a0 b3 a8 43 33 9f 47 41
       29.025537 2.647933 337.40332 12.476367
000020 4c e9 25 41 16 51 8e 3f 3c 43 a6 43 c2 ba 54 41
       10.369457 1.1118495 332.52527 13.295595
000030 7f bc f0 41 6a 6b 2e 40 3c 43 a6 43 c2 ba 54 41
       30.09204 2.725306 332.52527 13.295595
000040 2d de 1f 41 74 25 8d 3f 31 20 ac 43 f7 db 60 41
       9.991742 1.1027055 344.2515 14.053702
000050 65 2f f8 41 d3 a9 3c 40 31 20 ac 43 f7 db 60 41
       31.023142 2.9478652 344.2515 14.053702
