models/checkpoint_critic0.pth (torch_old, 526941 bytes, 9 tensors)

fcs1.weight f4 [400, 24]
0	0xbf9cb0c3	-1.2241443
1	0xbf477655	-0.77914935
2	0x3e9e557d	0.30924597
3	0x3e12720e	0.14301321
4	0xbf0a3b7c	-0.53997016
5	0x3f410d43	0.7541086
6	0x3f5c62d7	0.8608832
7	0xbf4b7439	-0.79474217
8	0x3d17deec	0.03707783
9	0xbdbf2d58	-0.093348205
10	0xbe4c0324	-0.19923073
11	0xbda8ad0b	-0.0823613
12	0x3e10864e	0.14113733
13	0x3e3c782b	0.18405215
14	0xbed51a6d	-0.41621724
15	0xbe22fdde	-0.15917155
16	0x3e53dd0e	0.20689794
17	0xbf36fbda	-0.71478045
18	0xbeb9b4da	-0.3627079
19	0x3c663b0d	0.014052165
20	0x3e943dae	0.28953308
21	0x3d517733	0.051139068
22	0xbed66b95	-0.41878954
23	0x3e2e63c0	0.17030239
24	0xbea1fdeb	-0.31639037
25	0xbed66bb8	-0.41879058
26	0xbed53372	-0.41640812
27	0xbe242538	-0.16029823
28	0xbf0a0c4f	-0.5392503
29	0x3d6bed57	0.05759939
30	0x3df4f222	0.11960246
31	0xbea910ae	-0.33020538
32	0x3ea1f04b	0.3162864
33	0x3d9cbeb9	0.07653565
34	0xbdc2ad43	-0.09505703
35	0xbe0a9b5b	-0.13535826
36	0xbddc359d	-0.107524134
37	0xbd4e070f	-0.0502997
38	0x3d45ca76	0.048288785
39	0xbf94b6c1	-1.1618272
40	0x3e531b8b	0.20615976
41	0x3e578bf8	0.21049488
42	0xbf27106c	-0.6525943
43	0xbf074874	-0.5284493
44	0x3eefae9c	0.46812904
45	0x3d8d1fb6	0.06890814
46	0xbe53cad8	-0.20682847
47	0xbe52e0ab	-0.20593517
48	0xbe6eaeff	-0.23308943
49	0xbdd2b71c	-0.102888316
50	0x3e73fbc4	0.2382651
51	0xbe8c6716	-0.27422398
52	0x3e22341b	0.15840189
53	0x3f67cb44	0.90544534
54	0x3dc92d4b	0.09823092
55	0x3ec10b9c	0.3770417
56	0xbe8e7537	-0.27823803
57	0xbea12b24	-0.31478226
58	0xbe4cbf1e	-0.1999478
59	0x3e952060	0.29126263
60	0xbd4b2ccf	-0.04960328
61	0x3f005a3a	0.50137675
62	0xbf311428	-0.6917138
63	0xbe600a92	-0.21879032
64	0xbe871eed	-0.26390782
65	0x3ecdd523	0.40201673
66	0x3e8e50c2	0.27795988
67	0xbc9daaf3	-0.019246554
68	0xbe3ea320	-0.18616915
69	0xbef756bd	-0.48308364
70	0xbdc772b4	-0.09738675
71	0xbe4cf839	-0.20016564
72	0xbf22eabe	-0.6363944
73	0x3b920128	0.0044557042
74	0xbd2a6045	-0.041595716
75	0xbe777fb3	-0.24169807
76	0xbfa779a4	-1.3083997
77	0xbe45044e	-0.19239923
78	0x3f42b5ba	0.7605854
79	0x3e47274b	0.19448583
80	0xbe02da62	-0.12778619
81	0x3c98b1f9	0.018639551
82	0x3e27108f	0.1631491
83	0x3dc56d8c	0.09640035
84	0xbd76811c	-0.060181722
85	0xbfa2a644	-1.270699
86	0x3c03628f	0.008019104
87	0x3e9b1dd6	0.302962
88	0xbf09ecd7	-0.53877014
89	0x3f87230c	1.055757
90	0xbc29fb5e	-0.010374872
91	0xbe77b086	-0.24188432
92	0x3f933db5	1.1503206
93	0x3e878d0a	0.26474792
94	0x3f26d32e	0.65165985
95	0x3f4744d2	0.77839386
96	0xbfa2c5c3	-1.2716602
97	0xbf83327c	-1.0249782
98	0xbd458279	-0.04822013
99	0xbd782f4c	-0.06059198
100	0x3e9f4d11	0.31113485
101	0xbecdc296	-0.4018752
102	0x3f496ea2	0.7868444
103	0xbc85a4c3	-0.016313916
104	0xbe63fa1e	-0.22263381
105	0x3e51a4a5	0.20472963
106	0xbec20f91	-0.379025
107	0x3cbf9e5e	0.023390945
108	0x3e4fe661	0.20302726
109	0xbe2ce417	-0.16883884
110	0x3ebd0bed	0.3692316
111	0xbf8ba3a2	-1.0909312
112	0xbf015f40	-0.50535965
113	0xbf216a08	-0.63052416
114	0xbe6b696d	-0.22989435
115	0xbc158a99	-0.009127283
116	0xbfb138fa	-1.3845513
117	0xbc293618	-0.010327838
118	0x3e938a8a	0.28816634
119	0xbec3bd80	-0.38230515
120	0xbe158d84	-0.14604765
121	0xbe9718e1	-0.2951117
122	0xbd95ba7b	-0.07310959
123	0xbe91a0b1	-0.2844291
124	0xbf16f566	-0.589682
125	0xbc4502d1	-0.012024597
126	0x3dd90513	0.10596671
127	0xbe2ea5fc	-0.17055506
128	0xbcce76ad	-0.025203073
129	0x3f16b40d	0.58868486
130	0xbdce9934	-0.10087815
131	0xbd9ecf6f	-0.077544086
132	0xbef817e5	-0.4845573
133	0x3e516f8e	0.20452711
134	0xbfd7f8bc	-1.6872783
135	0x3f81abb7	1.0130528
136	0x3ece7679	0.40324762
137	0xbf4bfc6c	-0.7968204
138	0x3e41d32d	0.18928213
139	0xbe66b5bd	-0.22530265
140	0x3dba995a	0.09111281
141	0xbecd8e48	-0.40147614
142	0x3f8a3b1a	1.0799286
143	0x3fb043fb	1.3770746
144	0x3edf6103	0.43628702
145	0x3e6b2ca0	0.22966242
146	0xbd99b11a	-0.075044826
147	0x3d9b892e	0.07594524
148	0xbf548d0f	-0.8302774
149	0x3f1086d3	0.56455725
150	0xbe337f1c	-0.17528957
151	0xbec4e09b	-0.3845261
152	0xbd85d05e	-0.065338835
153	0x3d7fb7fb	0.062431317
154	0xbc90ae7c	-0.017661326
155	0x3da2c1bc	0.07947108
156	0xbd159f40	-0.036528826
157	0x3f2b6f3a	0.66966593
158	0xbee7ad48	-0.4524939
159	0xbecd1154	-0.40052283
160	0x3e210cda	0.15727559
161	0x3eac0a06	0.33601397
162	0xbd836261	-0.06415249
163	0x3e0641d1	0.13111044
164	0x3fa6858f	1.3009509
165	0xbec0c5f0	-0.37651014
166	0xbe31c928	-0.17361891
167	0xbdcf1d7d	-0.10113046
168	0x3c55eac0	0.013056457
169	0x3d1514a1	0.036396626
170	0xbcaa42e2	-0.020783845
171	0x3e012567	0.12611924
172	0xbf379ed8	-0.7172675
173	0x3e2c32d0	0.16816258
174	0xbdb7fbc5	-0.08983568
175	0xbf507d2f	-0.81441015
176	0xbbd79932	-0.0065795416
177	0x3e28952f	0.16463159
178	0xbe5b2085	-0.21399124
179	0xbecd1fdd	-0.40063372
180	0xbd86a7b9	-0.06574959
181	0x3ee62507	0.44950125
182	0x3f03a95d	0.514303
183	0xbf05c807	-0.5225834
184	0x3f99a9e6	1.2004974
185	0x3f11a511	0.56892496
186	0x3dc2a842	0.09504749
187	0xbeb1776f	-0.34661433
188	0x3bbdaec7	0.0057886573
189	0xbe5a1ae4	-0.2129932
190	0x3e69a7d0	0.22817922
191	0x3f732391	0.94976145
192	0x3e28c9fc	0.16483301
193	0x3f06c68b	0.526467
194	0x3e5ccb1e	0.21561858
195	0x3d505630	0.050863445
196	0xbf8c5857	-1.0964459
197	0xbebf7d51	-0.37400296
198	0x3c695445	0.014241283
199	0x3d28fe53	0.041258167
200	0x3e6cedb6	0.23137555
201	0xbe9467e2	-0.28985506
202	0xbe93333b	-0.28750023
203	0xbea4a1c1	-0.32154658
204	0x3c869e7a	0.01643299
205	0x3b9a4402	0.004707814
206	0xbf00e44d	-0.5034836
207	0xbfdd8f1b	-1.7309297
208	0xbe37f087	-0.17962848
209	0xbedf02cc	-0.4355682
210	0x3c135cd2	0.008994298
211	0xbe1d0f34	-0.15337831
212	0x3f44f55f	0.76936907
213	0xbdec4279	-0.11536116
214	0xbf28b5a9	-0.6590219
215	0x3c2cb571	0.010541306
216	0xbf3c0dc2	-0.7345849
217	0x3e36e2b6	0.17859921
218	0x3e87394e	0.26410908
219	0x3eaacb8b	0.33358416
220	0x3f14f9a8	0.58193445
221	0x3eaf8c24	0.34286606
222	0xbdaf9d74	-0.08574954
223	0x3eb17f60	0.34667492
224	0x3d63992d	0.055566
225	0xbe9f2e96	-0.3109023
226	0xbdce15d6	-0.100627586
227	0xbe87b68a	-0.26506454
228	0x3df3659e	0.11884616
229	0xbe37ba56	-0.17942175
230	0xbea32c48	-0.3186972
231	0xbd01fbd0	-0.031734288
232	0xbe112719	-0.14175071
233	0x3e85304f	0.2601342
234	0xbe8fe85d	-0.28106967
235	0xbe357809	-0.17721571
236	0xbea7f929	-0.32807282
237	0x3dd79aab	0.105275474
238	0xbe4b6ae1	-0.1986499
239	0xbcc2a99d	-0.023762519
240	0xbf80d203	-1.006409
241	0x3cccdfc8	0.025009051
242	0x3ebc6910	0.36798906
243	0x3eed84dc	0.46390426
244	0xbf344863	-0.70422953
245	0xbe6c305d	-0.23065324
246	0xbf61f439	-0.8826328
247	0xbfb4c6df	-1.4123191
248	0x3cc35d81	0.023848297
249	0x3e26d336	0.16291508
250	0x3dbaa4a3	0.09113433
251	0xbea57ef2	-0.32323414
252	0x3e04e1c2	0.12976745
253	0xbcc3f371	-0.023919793
254	0x3f687a1e	0.90811336
255	0xbf3dc9de	-0.7413615

fcs1.bias f4 [400]
0	0xbf83d145	-1.0298239
1	0xbf1112a4	-0.5666907
2	0xbf341ac7	-0.7035336
3	0xbec25809	-0.3795779
4	0xbf314225	-0.69241554
5	0xbf91d55b	-1.1393236
6	0xbf2c20e8	-0.6723771
7	0xbf8b26f1	-1.0871259
8	0xbf3cb186	-0.7370838
9	0xbf09e163	-0.5385954
10	0xbf0c7ffc	-0.5488279
11	0xbeb0bdd0	-0.34519815
12	0xbf93a6b2	-1.1535246
13	0xbefabf57	-0.48974106
14	0xbeb526bc	-0.35381114
15	0xbece7941	-0.40326884
16	0xbee42dfd	-0.44566336
17	0xbe8f8c98	-0.28036952
18	0xbea0766a	-0.31340343
19	0xbf375150	-0.7160845
20	0xbf74c9f4	-0.95620656
21	0xbf4cd23f	-0.8000831
22	0xbf911b54	-1.1336465
23	0xbf3a996c	-0.72890353
24	0xbf228bbd	-0.63494474
25	0xbf345ed9	-0.70457226
26	0xbf39c066	-0.725592
27	0xbf219d65	-0.6313079
28	0xbff2f7a2	-1.8981822
29	0xbf13772a	-0.57603705
30	0xbfc4816d	-1.5351998
31	0xbf3c35e2	-0.7351972
32	0xbf3a1a07	-0.72695965
33	0xbf03105b	-0.5119683
34	0xbff5bbbd	-1.9197918
35	0xbfb24e8d	-1.3930222
36	0xbe622b71	-0.22086884
37	0xbfd458ed	-1.6589638
38	0xbeeb54ff	-0.45963284
39	0xbf4531c1	-0.77029043
40	0xbf8e0d21	-1.1097757
41	0xbfdb872d	-1.7150627
42	0xbf106d33	-0.56416625
43	0xbe456b23	-0.1927915
44	0xbf6866aa	-0.9078165
45	0xbfa3955e	-1.2779958
46	0xbef29afa	-0.47383863
47	0xbe31da21	-0.17368366
48	0xbf4eeb8b	-0.8082816
49	0xbf397ea5	-0.7245887
50	0xbf0a2280	-0.5395889
51	0xbf3ce547	-0.7378735
52	0xbf4c139e	-0.79717433
53	0xbfedefc7	-1.8588799
54	0xbf32bf7a	-0.6982342
55	0xbf33eae3	-0.70280284
56	0xbfac4e92	-1.3461478
57	0xbfbcd004	-1.4750981
58	0xbf3233c5	-0.69610244
59	0xbf23d680	-0.63999176
60	0xbaef7353	-0.0018268622
61	0xc0001eb5	-2.0018742
62	0xbf4739c7	-0.77822536
63	0xbfb0b6f9	-1.3805839
64	0xbf30c816	-0.69055307
65	0xbe654146	-0.22388181
66	0xbfa70412	-1.3048117
67	0x3d2844bb	0.04108117
68	0xbfebbdde	-1.8417318
69	0xbf0b4e82	-0.5441667
70	0xbf7d3fa2	-0.9892522
71	0xbefc6593	-0.49296245
72	0xbf56ca56	-0.8390249
73	0xbf354ac2	-0.70817196
74	0xbf7d8a68	-0.99039316
75	0xbf830a90	-1.0237598
76	0xbfa81aa6	-1.3133132
77	0x3ded6a6f	0.11592566
78	0xbecc5e30	-0.3991561
79	0xbf86cc83	-1.0531162
80	0xbf492221	-0.785677
81	0xbf64ec3e	-0.89422977
82	0xbfae2751	-1.3605748
83	0xbf8bf5ff	-1.0934447
84	0xbfebc539	-1.8419563
85	0xbf18d011	-0.59692484
86	0xbf00c7fd	-0.5030516
87	0xbfe37682	-1.7770541
88	0xbfe2937b	-1.7701257
89	0xbf09c2a7	-0.5381264
90	0xbfa27764	-1.2692685
91	0xbf826b50	-1.0188999
92	0xbf85b770	-1.0446606
93	0x3e3718c1	0.17880537
94	0xbfa451e1	-1.2837487
95	0xbf1f5ba8	-0.6224923
96	0xbf80621f	-1.0029944
97	0xbf95e891	-1.1711599
98	0xbe130871	-0.14358689
99	0xbf55507b	-0.8332593
100	0xbe8cd6b4	-0.27507555
101	0xbefbf520	-0.49210453
102	0xbf0a49c7	-0.54018825
103	0xbf897189	-1.0737773
104	0xbf08cce5	-0.53437644
105	0xbf583cc3	-0.84467715
106	0xbf508415	-0.8145154
107	0xbf107c2d	-0.5643948
108	0xbf84b31f	-1.0367163
109	0xbf3d58ff	-0.7396392
110	0xbeab2098	-0.33423305
111	0xbf6e1b57	-0.9301047
112	0xbe8acb51	-0.27108243
113	0xbf88294d	-1.0637604
114	0xc0374fef	-2.8642538
115	0xbf4d1dac	-0.801234
116	0xbf84c5df	-1.0372885
117	0xbf37f1bb	-0.71853226
118	0xbf5848d7	-0.84486145
119	0xbf8cd6e2	-1.1003077
120	0xbf36d554	-0.7141926
121	0xbf482bd5	-0.7819188
122	0xc0012a82	-2.0182195
123	0xbfa77646	-1.3082969
124	0xbfef442b	-1.8692678
125	0xbf3a46f6	-0.7276453
126	0xbf8048e2	-1.0022242
127	0xbf8df598	-1.1090574
128	0xbf4c3ead	-0.79783136
129	0xbf102cb7	-0.5631823
130	0xbf8fca1c	-1.1233554
131	0xbf397a17	-0.7245192
132	0xbfb3699c	-1.4016604
133	0xbf24a223	-0.643099
134	0xbf8e4669	-1.1115237
135	0xbedc8d32	-0.43076473
136	0xbeeac1d2	-0.45850998
137	0xbef31c22	-0.474824
138	0xbf1b9fea	-0.60790884
139	0xbf1623b8	-0.5864825
140	0xbeb46f2f	-0.35241076
141	0xbf0922cd	-0.53568727
142	0xbf6083ce	-0.8770112
143	0xbf8d141a	-1.102176
144	0xbfdd8be9	-1.7308322
145	0xbf8a69c4	-1.0813527
146	0xbf584aca	-0.8448912
147	0xbf71c052	-0.9443408
148	0xbf184825	-0.59485084
149	0x3de4705e	0.11154245
150	0xbf53c156	-0.8271688
151	0xbf01f4f7	-0.5076441
152	0xbf3dd6bd	-0.7415579
153	0xc003d475	-2.0598423
154	0xbfaf04ad	-1.3673302
155	0xbe20e1e3	-0.15711169
156	0xbf27d298	-0.65555716
157	0xbed7f5f2	-0.4217983
158	0xbf54c77b	-0.83116883
159	0xbf8204dc	-1.0157733
160	0xbf7143d2	-0.9424411
161	0x3d698189	0.0570083
162	0xbfd36672	-1.6515639
163	0xbe7c1673	-0.24617939
164	0xbf31605f	-0.69287676
165	0xbee10453	-0.43948612
166	0x3f0794e9	0.52961594
167	0xbfb1c78b	-1.3889021
168	0xbf52a6d6	-0.8228582
169	0xbf4519a4	-0.7699225
170	0xbfb87e19	-1.4413482
171	0xbf199ab3	-0.6000168
172	0xbf2397e4	-0.6390364
173	0xbf86f912	-1.054476
174	0xbf8f9f03	-1.1220402
175	0xbf9a7e0f	-1.206972
176	0xbf2c65b0	-0.6734266
177	0xbf45da38	-0.772861
178	0xbf86dd29	-1.0536243
179	0xbfbde0b1	-1.4834195
180	0xbf943c68	-1.1580935
181	0xbf9a96c0	-1.2077255
182	0xbf9f01fc	-1.242248
183	0xc00a8db6	-2.1648993
184	0xbf4c7ed7	-0.7988104
185	0xbf44cd04	-0.7687533
186	0xbf739783	-0.95153064
187	0xbfa76ebc	-1.3080668
188	0xbf1fbae7	-0.62394565
189	0xbf922bcf	-1.1419619
190	0xbf695f1a	-0.9116074
191	0xbfdfe93c	-1.7493052
192	0xbf6a7ebc	-0.9159963
193	0xbf9c0f03	-1.2192081
194	0xbf80734d	-1.0035187
195	0xbe858db4	-0.26084673
196	0xbf56431d	-0.83696157
197	0xbf8bf3e8	-1.0933809
198	0xbf5d1b45	-0.86369735
199	0xbee8c31c	-0.45461357
200	0xbecc7925	-0.39936176
201	0xbef69aa5	-0.4816486
202	0xbf2c0b67	-0.672049
203	0xbf24db10	-0.6439676
204	0xbf064c10	-0.5245981
205	0xbf926ac0	-1.1438828
206	0xbf4092bd	-0.75223905
207	0xbf99c97e	-1.2014616
208	0xbf18fdde	-0.5976237
209	0xbfccb851	-1.5993749
210	0xbf32bbba	-0.698177
211	0xbf15559b	-0.5833375
212	0xbf8af106	-1.0854805
213	0xbf7114e1	-0.94172484
214	0xbfc79a0e	-1.5593889
215	0xbf03ad81	-0.5143662
216	0xbf0bd990	-0.5462885
217	0xbea58950	-0.32331324
218	0xbfa00326	-1.2500961
219	0xbf1c8c7f	-0.6115188
220	0xbfa5ff12	-1.2968466
221	0xbf570f53	-0.8400776
222	0xbf8862b3	-1.0655121
223	0xbea8f3be	-0.3299846
224	0xbf172357	-0.590383
225	0xbf85151f	-1.0397071
226	0xbf3eda97	-0.7455229
227	0xbf47e34d	-0.7808121
228	0xbf20732f	-0.62675756
229	0xbfd14b31	-1.6351072
230	0xbfc6d445	-1.553353
231	0xbf33608a	-0.7006918
232	0xbd8b2919	-0.06794948
233	0xbf0951e7	-0.536406
234	0xbf607bf7	-0.87689155
235	0xbf0d7943	-0.55263156
236	0xbf411609	-0.7542425
237	0xbfc7b53a	-1.5602181
238	0xbf38a6bc	-0.72129416
239	0xbf0b4960	-0.54408836
240	0xbf9a7687	-1.2067422
241	0xbfbc3988	-1.4705057
242	0xbf06647c	-0.52497077
243	0xbeac3873	-0.33636817
244	0xbf326573	-0.6968605
245	0xbefcc8a8	-0.4937184
246	0xbf47fecf	-0.7812318
247	0xbf76ff2f	-0.9648313
248	0xbf4e414f	-0.80568403
249	0xbff1f1f6	-1.8901966
250	0xbf7d9be8	-0.9906602
251	0xbfd38d5e	-1.6527517
252	0xbfcdd941	-1.6081926
253	0xbf61bce2	-0.8817884
254	0xbeeeccce	-0.4664063
255	0xbfe74a3b	-1.8069528

fc2.weight f4 [300, 402]
0	0x3f2b3d45	0.66890365
1	0x3e9cd8a7	0.30634043
2	0x3f06bca0	0.5263157
3	0xbdaa770e	-0.08323489
4	0xbef8e423	-0.48611555
5	0x3e8476d5	0.25871912
6	0xbe0fc771	-0.14040925
7	0x3f1d5ee1	0.614729
8	0x3e67662a	0.22597566
9	0x3f256bad	0.64617425
10	0x3e88e3a4	0.26736176
11	0x3ec6171c	0.38689506
12	0x3e79266c	0.24331063
13	0x3f2379da	0.63857806
14	0xbbd86165	-0.006603407
15	0xbc1ffd09	-0.009764918
16	0x3e3add86	0.18248567
17	0xbee4c8a2	-0.4468432
18	0xbe0d11ad	-0.13776274
19	0xbc2dc04d	-0.01060493
20	0x3f19ff16	0.60154855
21	0xbe16b9b4	-0.14719278
22	0xbe686859	-0.22696055
23	0x3f02a310	0.51030064
24	0x3e4b7703	0.19869618
25	0x3b891b4b	0.004184162
26	0x3ee715af	0.4513373
27	0x3e7a4b21	0.24442722
28	0x3f31c167	0.69435734
29	0x3edb729f	0.42860886
30	0x3f240f82	0.64086163
31	0x3e6a8705	0.22903068
32	0x3e96af59	0.29430655
33	0xbd7d8c46	-0.061901353
34	0x3f2bc1e0	0.67092705
35	0x3f37beaa	0.71775305
36	0xbe82701a	-0.25476152
37	0x3f0dd82e	0.5540799
38	0x3ee5b83e	0.44867128
39	0x3d9c834b	0.0764223
40	0xbd63ca47	-0.05561283
41	0x3f1ed3e9	0.620421
42	0x3ef9d1f3	0.4879299
43	0x3f137b6c	0.576102
44	0x3eb7197e	0.35761636
45	0x3ebff909	0.37494686
46	0x3f29feb3	0.66404265
47	0x3e83f4d8	0.25772738
48	0x3e9c933a	0.30581075
49	0x3f19dea8	0.6010537
50	0x3ec212d9	0.37905005
51	0x3e179cd5	0.1480592
52	0x3e52f8bc	0.20602697
53	0x3f3ac38e	0.7295464
54	0x3f3d0b22	0.7384511
55	0x3ef449c3	0.47712526
56	0x3f45f631	0.77328783
57	0x3f27db84	0.6556933
58	0x3f082e53	0.53195685
59	0x3eec4cc0	0.46152306
60	0xbd8fec9c	-0.070275515
61	0x3f076651	0.528905
62	0x3f12ec61	0.57391936
63	0x3f0d2a14	0.5514233
64	0x3f07c5d6	0.5303625
65	0xbe27289c	-0.16324085
66	0x3ec5b9ae	0.38618225
67	0x3e9ed3e9	0.3102105
68	0x3f2c109f	0.6721286
69	0x3ed173e0	0.40908718
70	0x3ec3f9f4	0.38276637
71	0x3f00c5e3	0.5030195
72	0x3e93c3dc	0.28860366
73	0x3f3bfddf	0.7343425
74	0xbe5402ee	-0.20704243
75	0x3cab7828	0.020931318
76	0x3f45018f	0.76955503
77	0xbe1c5c3d	-0.15269561
78	0xbebb0a3f	-0.36531255
79	0x3f80495e	1.002239
80	0x3e304b25	0.17216165
81	0x3e486dad	0.19573088
82	0x3f20f97d	0.6288069
83	0x3e2a8a0a	0.1665422
84	0x3ee2f678	0.44328666
85	0x3f085d33	0.5326721
86	0x3e765451	0.24055602
87	0x3f31a610	0.69394016
88	0x3f2685ac	0.6504772
89	0xbe79ea19	-0.24405707
90	0xbd3985e7	-0.045293715
91	0xbe6f89e0	-0.23392439
92	0x3f2259c8	0.63418245
93	0xbc7e8654	-0.015534956
94	0xbdab4759	-0.08363218
95	0x3f0d8ad1	0.5528994
96	0x3f1343f2	0.5752555
97	0x3bf7785f	0.007552191
98	0xbe3362ee	-0.17518207
99	0x3ede25c4	0.43388188
100	0x3e8dd6ba	0.27702886
101	0xbe149be6	-0.14512596
102	0x3f01078a	0.5040213
103	0x3f0f1527	0.5589165
104	0x3eb4d2f5	0.35317197
105	0xbdf2bd54	-0.11852518
106	0x3d9ddb63	0.0770786
107	0x3e9d9348	0.3077643
108	0x3ef0ea5a	0.47053796
109	0xbef8c9d0	-0.4859147
110	0x3f32d557	0.6985678
111	0x3ef78e0f	0.4835057
112	0x3e2f4512	0.17116192
113	0x3d26175a	0.040549614
114	0x3f30d0c7	0.6906857
115	0x3f130d6d	0.5744236
116	0x3dcaebe2	0.09908272
117	0x3ec94848	0.3931296
118	0x3e5170f7	0.20453249
119	0x3e9de298	0.3083694
120	0xbd190d74	-0.037366346
121	0x3de22325	0.110418595
122	0x3f1e983d	0.6195105
123	0x3f203e5d	0.6259516
124	0x3f37cfc6	0.7180141
125	0x3eaa6519	0.33280256
126	0x3ed8fc64	0.4238006
127	0x3e1b0c61	0.15141441
128	0x3e984ffb	0.2974852
129	0x3e6023ee	0.21888706
130	0x3e6fbe6f	0.23412488
131	0x3f1a3ec5	0.6025203
132	0x3f3458aa	0.7044779
133	0x3f05c684	0.52256036
134	0x3e964146	0.29346675
135	0xbe254444	-0.16139323
136	0xbe0e98fb	-0.13925545
137	0x3ea8acf1	0.32944444
138	0x3f018792	0.5059749
139	0x3ef9d280	0.4879341
140	0x3e962575	0.29325452
141	0xbe4e50d4	-0.20148021
142	0xbde9735f	-0.113989584
143	0x3ea0defd	0.31420127
144	0x3f20a1b2	0.6274673
145	0x3db3ebd5	0.08785216
146	0x3e8a91ba	0.27064306
147	0xbecb32e4	-0.39687264
148	0x3ea4ee2e	0.32212967
149	0xbd677458	-0.05650744
150	0x3edd7e7f	0.4326057
151	0x3ec7e505	0.39041916
152	0x3f388047	0.72070736
153	0x3f0f38c2	0.5594598
154	0x3f15d57b	0.5852887
155	0x3efce570	0.49393797
156	0x3d6c7b73	0.057734918
157	0x3e40b49e	0.188189
158	0x3f18028f	0.59378904
159	0x3be7b2d3	0.007070878
160	0xbd280621	-0.04102147
161	0xbdc149f5	-0.09437934
162	0x3f3a98e5	0.7288955
163	0xbe5832ef	-0.2111318
164	0x3f0f97af	0.56090826
165	0x3eff6e9e	0.49889082
166	0x3e2351ea	0.15949216
167	0x3f1e61ec	0.61868167
168	0x3f0dfe63	0.5546629
169	0xbe611127	-0.219792
170	0x3f2f1865	0.683966
171	0x3e259697	0.16170727
172	0x3e809eee	0.25121254
173	0xbed0d470	-0.40787077
174	0x3f11b4b5	0.5691636
175	0x3f2b4fcd	0.6691864
176	0xbd99b7bf	-0.0750575
177	0xbe2eb795	-0.17062218
178	0x3e8ae9db	0.27131543
179	0x3f23287c	0.6373365
180	0xbd1f5703	-0.03890134
181	0x3e88da20	0.26728916
182	0x3e64e5a1	0.22353221
183	0x3f112307	0.5669407
184	0x3e803fbb	0.25048622
185	0x3c7afd85	0.015319233
186	0xbe5171f9	-0.20453633
187	0x3f0cd84e	0.55017555
188	0x3e5d2837	0.21597372
189	0xbe0fd9a4	-0.14047867
190	0x3f3e8010	0.7441416
191	0x3f27e724	0.6558707
192	0x3f398776	0.7247232
193	0x3e2a58f2	0.16635492
194	0xbcab065e	-0.02087706
195	0xbde32625	-0.1109126
196	0x3e175e02	0.14781955
197	0x3f19f1d6	0.6013464
198	0x3ef272f3	0.47353324
199	0xbe66319d	-0.22479863
200	0xbe769740	-0.24081135
201	0x3f2024f1	0.6255637
202	0x3f393a86	0.72354925
203	0x3d1a838e	0.037723117
204	0x3ccfcae6	0.025365304
205	0x3f0e3fe7	0.5556626
206	0x3f00ca31	0.5030852
207	0x3e87b8e7	0.26508257
208	0x3ed07074	0.40710795
209	0xbd95fbb7	-0.073234014
210	0x3ea52ed7	0.32262298
211	0x3ef5af0c	0.47985113
212	0x3e8ff866	0.281192
213	0x3db0f679	0.08640761
214	0x3f3636fe	0.7117766
215	0x3e88c70b	0.26714358
216	0x3ec7fa36	0.39058083
217	0x3ecf689f	0.40509507
218	0x3e5a2aa0	0.21305323
219	0x3eb1732f	0.3465819
220	0x3f314eaf	0.69260687
221	0x3e6466dd	0.22304864
222	0x3eaf0964	0.34186852
223	0x3f1ce72f	0.6129026
224	0x3f02eba2	0.511408
225	0x3f26abdf	0.65106004
226	0xbe8dd8a2	-0.2770434
227	0xbaca7e10	-0.0015448947
228	0x3f648523	0.8926565
229	0x3f006789	0.5015798
230	0x3f4f321c	0.80935836
231	0x3dc88038	0.09790081
232	0xbd7d3d11	-0.061825816
233	0x3f0d9fd0	0.5532198
234	0xbdcdf6ff	-0.100568764
235	0x3ee72205	0.45143142
236	0x3db81bc5	0.089896716
237	0x3f3974ec	0.72444034
238	0x3eb2f2fe	0.34951013
239	0x3efeb678	0.49748588
240	0x3e83068d	0.25590935
241	0xbe681b0a	-0.22666565
242	0x3f0f7887	0.56043285
243	0xbe105f71	-0.14098908
244	0x3d974d60	0.07387805
245	0x3ecbc01e	0.3979501
246	0x3f0b2451	0.5435229
247	0x3e311ba1	0.17295696
248	0xbcfbd272	-0.030739997
249	0x3f3acd33	0.7296936
250	0x3eaa05fb	0.33207688
251	0x3f24b89f	0.6434421
252	0x3f14b66c	0.58090854
253	0xbf179e92	-0.59226334
254	0x3ef0d1f4	0.47035182
255	0x3f185acc	0.59513545

fc2.bias f4 [300]
0	0xbef827e4	-0.48467934
1	0xbeb3e82e	-0.35138077
2	0xbe8b417a	-0.27198392
3	0xbec07304	-0.3758775
4	0xbefd1ea6	-0.49437445
5	0xbe811f91	-0.25219396
6	0xbf3d4136	-0.7392763
7	0xbdf8712d	-0.121309616
8	0xbf9029a0	-1.1262703
9	0xbddc402b	-0.107544266
10	0xbe98e10c	-0.29859197
11	0xbe82b29b	-0.2552689
12	0xbf15c6ff	-0.5850677
13	0xbebb2b72	-0.36556584
14	0xbf021dba	-0.5082661
15	0xbe48c097	-0.19604717
16	0xbeed64a3	-0.46365842
17	0xbf0044ae	-0.50104797
18	0xbee37860	-0.44427776
19	0xbea43921	-0.32074836
20	0xbee8406e	-0.45361656
21	0xbe8034fb	-0.2504042
22	0x3ebae5b7	0.36503384
23	0xbe828b61	-0.25496963
24	0xbed0a1b1	-0.4074836
25	0xbe093605	-0.13399513
26	0xbee1445e	-0.43997473
27	0xbec4e880	-0.38458633
28	0xbebebd4e	-0.37253803
29	0xbed6e677	-0.41972706
30	0xbeb96d0a	-0.36216003
31	0xbeae6e15	-0.3406836
32	0xbf193a31	-0.5985442
33	0xbde98750	-0.11402762
34	0xbeb44a0f	-0.35212752
35	0xbe96be0b	-0.29441866
36	0xbe94bd3c	-0.29050624
37	0xbe8dacd7	-0.2767093
38	0xbef6a125	-0.4816982
39	0xbeb5c04c	-0.35498273
40	0xbf34171c	-0.7034776
41	0xbf75511e	-0.958269
42	0xbd0f867b	-0.03504036
43	0xbf0bca5e	-0.5460566
44	0xbf19066e	-0.59775436
45	0xbed02397	-0.40652153
46	0xbf2c4850	-0.6729784
47	0xbf229f36	-0.63524187
48	0xbea4a197	-0.32154533
49	0xbe8127a3	-0.25225553
50	0xbed1169d	-0.40837565
51	0xbec2f72a	-0.38079196
52	0xbe6db39f	-0.23213051
53	0x3d950e96	0.07278173
54	0xbf3dca02	-0.74136364
55	0xbc3bec30	-0.011469886
56	0xbeadcfcd	-0.33947602
57	0xbe762405	-0.24037178
58	0xbea88afb	-0.32918534
59	0xbecb9f94	-0.39770186
60	0xbe867472	-0.26260716
61	0xbed6b55d	-0.41935244
62	0xbed32c85	-0.41244903
63	0xbedf3b3b	-0.43599877
64	0xbb4f6d6a	-0.003165091
65	0xbf2a1c32	-0.6644927
66	0xbeb7f364	-0.3592788
67	0xbeef7d8c	-0.46775472
68	0xbee60f7f	-0.44933698
69	0xbf076eeb	-0.5290362
70	0xbf0f4ad2	-0.5597354
71	0xbebe42dd	-0.37160388
72	0xbe863ec3	-0.26219758
73	0xbe3097f0	-0.1724546
74	0xbedc1395	-0.4298369
75	0xbf0a6b77	-0.5407023
76	0xbf17e1e6	-0.5932907
77	0xbeffb6bc	-0.49944103
78	0xbe9089eb	-0.28230223
79	0xbebbbce2	-0.36667544
80	0xbe89e093	-0.2692915
81	0xbedf3f70	-0.43603086
82	0xbf1e9bf8	-0.6195674
83	0xbe325d20	-0.17418337
84	0xbea25b24	-0.3171016
85	0xbf19f2df	-0.60136217
86	0xbdaa359a	-0.08311005
87	0xbf2c95ea	-0.6741625
88	0xbeb4a554	-0.35282385
89	0xbe3b3055	-0.18280156
90	0xbebf8ffc	-0.3741454
91	0xbf0898ba	-0.5335804
92	0xbea1e106	-0.31616992
93	0xbe905c35	-0.28195348
94	0xbedef03e	-0.43542665
95	0xbec731f7	-0.38905308
96	0xbed8c3a0	-0.4233675
97	0xbeaecf81	-0.34142688
98	0xbed30c50	-0.4122033
99	0xbda47b81	-0.08031369
100	0xbec974ce	-0.39346927
101	0xbe8da529	-0.2766507
102	0xbf135f63	-0.57567424
103	0xbeea2ab8	-0.45735717
104	0xbe206d5a	-0.15666714
105	0xbf6d6fd5	-0.9274877
106	0xbe75d10d	-0.24005528
107	0xbea099ca	-0.31367332
108	0xbdbca8c2	-0.092118755
109	0xbf1e9c3a	-0.6195713
110	0xbee5e955	-0.4490458
111	0xbf73b473	-0.9519722
112	0xbe298ba2	-0.16557172
113	0xbecc4d2c	-0.39902627
114	0xbe959f65	-0.2922317
115	0xbeb517be	-0.35369676
116	0xbec84a4d	-0.39119187
117	0xbefc5fe7	-0.49291918
118	0xbef346d9	-0.4751499
119	0xbfb6a7a9	-1.4269916
120	0xbe9fcaac	-0.31209314
121	0xbea397b0	-0.31951666
122	0xbe9ac604	-0.302292
123	0xbea39344	-0.31948292
124	0xbeeceabc	-0.46272838
125	0xbee44919	-0.4458702
126	0xbeb17b79	-0.34664515
127	0xbf508632	-0.81454766
128	0xbe7f855f	-0.24953221
129	0xbf247b6a	-0.64250815
130	0xbea06f1b	-0.31334767
131	0xbf1b640c	-0.60699534
132	0xbe78d475	-0.24299796
133	0xbea65869	-0.32489327
134	0xbe911365	-0.2833511
135	0xbe1e926d	-0.15485545
136	0xbf2dbb25	-0.67863685
137	0xbeea9b1a	-0.45821458
138	0xbf00226f	-0.5005254
139	0xbe21307c	-0.15741152
140	0xbee3627b	-0.44411072
141	0xbef2c7f0	-0.47418165
142	0xbedfaeff	-0.436882
143	0xbf30d941	-0.69081503
144	0xbf11730b	-0.56816167
145	0xbe998cd5	-0.2999026
146	0xbe90fb41	-0.28316692
147	0xbecc2307	-0.39870474
148	0xbf3f01f5	-0.7461236
149	0xbeb6e3d5	-0.35720697
150	0xbd6663dc	-0.056247577
151	0xbea417d0	-0.32049417
152	0xbec7db80	-0.39034653
153	0xbe4cfab7	-0.20017515
154	0xbe8c2378	-0.2737081
155	0xbe698756	-0.22805533
156	0xbebfc371	-0.37453797
157	0xbea7a10d	-0.3274006
158	0xbe92d4ae	-0.28677887
159	0xbf23af47	-0.63939327
160	0xbe183af2	-0.14866236
161	0xbf6db147	-0.9284863
162	0xbf14873d	-0.5801886
163	0xbe898499	-0.26858976
164	0xbf02b0f9	-0.5105129
165	0xbecb537c	-0.3971213
166	0xbf308842	-0.6895791
167	0xbebffede	-0.37499136
168	0xbee9c7b3	-0.4566017
169	0xbf154afd	-0.5831755
170	0xbe6a8ad5	-0.22904523
171	0xbebc3b69	-0.36764076
172	0xbed1c79c	-0.40972602
173	0xbe5caa16	-0.21549258
174	0xbef970db	-0.48718914
175	0xbeb614c6	-0.35562724
176	0xbf050964	-0.51967454
177	0xbf2aa581	-0.6665879
178	0xbe120bb1	-0.14262272
179	0xbed329a3	-0.41242704
180	0xbe36e10e	-0.17859289
181	0xbec1437c	-0.377468
182	0xbf4922d8	-0.7856879
183	0xbf6d588b	-0.9271323
184	0xbe9cc67e	-0.30620188
185	0xbeb82804	-0.3596803
186	0xbe66d659	-0.22542705
187	0xbe3df352	-0.1854985
188	0xbeb18970	-0.3467517
189	0xbf248786	-0.6426929
190	0xbf0fec63	-0.5622007
191	0xbe08a82a	-0.133454
192	0xbec1828c	-0.37794912
193	0xbefef991	-0.4979978
194	0xbf4b705f	-0.7946834
195	0xbf068b55	-0.52556354
196	0xbf972d1b	-1.181064
197	0xbeedb63f	-0.46428105
198	0xbefd3e2b	-0.49461493
199	0xbea8f5ca	-0.33000022
200	0xbf1f63c3	-0.622616
201	0xbf97df75	-1.1865069
202	0xbf303ddc	-0.6884439
203	0xbed8e25e	-0.42360204
204	0xbec7eb23	-0.39046583
205	0xbfaf650d	-1.3702713
206	0xbe95f866	-0.29291075
207	0xbf1f260e	-0.6216744
208	0xbeb9df4e	-0.3630318
209	0xbf868ccf	-1.0511721
210	0xbec754c0	-0.38931847
211	0xbed3dc61	-0.41379073
212	0xbf81df63	-1.0146297
213	0xbe8b4ea4	-0.27208436
214	0xbed28356	-0.41115826
215	0xbe84e7d0	-0.2595811
216	0xbeda80bb	-0.4267634
217	0xbec140db	-0.37744793
218	0xbe829893	-0.2550703
219	0xbe9a8cb8	-0.30185485
220	0xbf5ef735	-0.8709596
221	0xbeef8868	-0.46783757
222	0xbeb9a911	-0.362618
223	0xbe0b4e78	-0.13604152
224	0xbefdf251	-0.49598935
225	0xbf29ce37	-0.66330284
226	0xbe6a872d	-0.22903128
227	0xbf29790a	-0.66200316
228	0xbee03cae	-0.43796295
229	0xbf4a5cd7	-0.7904791
230	0xbe99aa96	-0.3001296
231	0xbf1b2975	-0.60610133
232	0xbf4a50f0	-0.7902975
233	0xbe096d79	-0.13420667
234	0xbed40fcd	-0.41418305
235	0xbed19bad	-0.40939084
236	0xbf0caf1f	-0.54954714
237	0xbee68805	-0.4502565
238	0xbe98dd0d	-0.29856148
239	0xbef3a717	-0.47588417
240	0xbe882bc9	-0.26595905
241	0xbd902bd0	-0.070396066
242	0xbf257a3e	-0.6463965
243	0xbf155552	-0.58333313
244	0xbebc2c67	-0.36752626
245	0xbe5b5dfe	-0.21422574
246	0xbea61497	-0.32437584
247	0xbefdd8b7	-0.49579403
248	0xbf012fa9	-0.5046335
249	0xbed8bf0a	-0.4233325
250	0xbf1ea333	-0.6196777
251	0xbf264064	-0.64942
252	0xbf3ee8fb	-0.7457425
253	0xbec5ecc0	-0.38657188
254	0xbef6b304	-0.48183453
255	0xbe3fd10b	-0.18732087

fc3.weight f4 [1, 300]
0	0xbd908bd6	-0.070579216
1	0x3c1a81ae	0.009430332
2	0x3bc65011	0.006052025
3	0xba0122a6	-0.00049261225
4	0xbda71e9e	-0.08160137
5	0xbc3b5147	-0.011432952
6	0xbc9cd438	-0.019144163
7	0xbc8680cb	-0.016418835
8	0x3d51ab25	0.051188607
9	0x3ce407f5	0.027835825
10	0xbbd83b9a	-0.006598902
11	0x3b5a1b23	0.0033280335
12	0x3b12751e	0.002234764
13	0x3c30144f	0.010747029
14	0xbc15f40d	-0.0091524245
15	0xbde00204	-0.109378844
16	0x3c2786af	0.010224982
17	0xbc01f936	-0.007932952
18	0xbbb92b98	-0.0056509487
19	0xbd19573f	-0.03743672
20	0xbafc0b87	-0.001922951
21	0xba402fcc	-0.0007331341
22	0x3d37964f	0.04482108
23	0xb9906bda	-0.00027546176
24	0x3c0b94f2	0.008519398
25	0x3b254fdd	0.0025224604
26	0x3c131bc4	0.008978788
27	0xbba2f792	-0.0049733603
28	0xbb67dc0d	-0.0035378963
29	0xbb95a6b3	-0.0045669912
30	0x3a066da2	0.0005128031
31	0xbbdfe2fb	-0.006832478
32	0x3b9e157c	0.0048243385
33	0x39ae3b8f	0.0003323224
34	0x39e1f4ab	0.00043097636
35	0xbbef6daf	-0.0073067765
36	0x3d888fcc	0.06668052
37	0x3b972edc	0.0046137404
38	0x3c622dc8	0.01380486
39	0xbbfe1d15	-0.0077549317
40	0x3e7510f7	0.23932253
41	0xbbc883cd	-0.0061192275
42	0x3b871f44	0.0041236
43	0xbcab5a72	-0.020917151
44	0x3e9e2931	0.30890802
45	0xbb8d09ba	-0.004304138
46	0x3e4c9f17	0.19982563
47	0x3b5cb2a2	0.003367581
48	0xbbe2c26a	-0.0069201486
49	0xbb5b2c2d	-0.003344308
50	0x3c310ea0	0.0108067095
51	0xbc6181d4	-0.013763864
52	0xbcbbfa70	-0.022946566
53	0x3d332b40	0.04374242
54	0x3c05bfb5	0.008163382
55	0x3d4321e8	0.047639757
56	0xbb973b18	-0.004615199
57	0xbb55e781	-0.0032639208
58	0xbb51babb	-0.003200217
59	0x3da68e8f	0.0813266
60	0xbbaf340c	-0.0053467806
61	0xbd179010	-0.037002623
62	0x3c7b339a	0.015332127
63	0x3c236871	0.009973631
64	0x3c994889	0.018711345
65	0x3e58f7d5	0.2118829
66	0xbbe582f7	-0.0070041376
67	0x3bb7cc90	0.0056091025
68	0x3bb4c56e	0.0055166995
69	0x3d6f186b	0.058372896
70	0x3d850201	0.06494523
71	0x3d1cf3fe	0.038318627
72	0xbba55819	-0.0050459024
73	0xbb5e36a0	-0.003390707
74	0xbc162c6a	-0.009165863
75	0xbc54ad6b	-0.012980799
76	0x3ab93f48	0.0014133239
77	0x3d90ec37	0.070763044
78	0xbb936ce6	-0.0044990657
79	0x3cc2db03	0.023786074
80	0x3c038855	0.00802811
81	0xbca47e03	-0.020079618
82	0x3b8ef9c4	0.0043632705
83	0xbb776319	-0.0037748276
84	0xbc30eaa2	-0.010798128
85	0x3a5edfd2	0.000850198
86	0x3b192560	0.0023368225
87	0x3e76aa7f	0.24088477
88	0xbbe642bc	-0.0070269983
89	0xbc78b74a	-0.015180418
90	0x3c9dbc01	0.019254686
91	0xbb3e68fc	-0.0029054275
92	0xbbf66c26	-0.0075202165
93	0xbb4f0c4d	-0.0031593025
94	0x3d434602	0.047674187
95	0x3bebaa5e	0.00719194
96	0xbb47c08f	-0.0030479764
97	0xbbc748c3	-0.006081672
98	0x3ca07d20	0.019590914
99	0x3c300004	0.010742191
100	0xbaad7a9c	-0.0013235393
101	0xbbdbf1ea	-0.006712188
102	0xbc887e32	-0.016661737
103	0x3b9ecd81	0.0048462753
104	0xbb96253a	-0.0045820745
105	0xbdb7ff69	-0.089842625
106	0x3969170b	0.00022229196
107	0xbb68e70d	-0.0035538108
108	0xbcfda1b3	-0.030960893
109	0xbda052d8	-0.07828301
110	0x3cb43a21	0.022000374
111	0xbd323dee	-0.043516092
112	0xbbe8e5e5	-0.0071074837
113	0xbb7b1569	-0.0038312322
114	0x3a7e93f5	0.00097113784
115	0xbc09e51f	-0.008416443
116	0xbc82ecbc	-0.015982024
117	0x3d7187fb	0.05896757
118	0xb9a258bf	-0.0003096517
119	0xbd8171f8	-0.06320566
120	0x3bb77348	0.0055984594
121	0xba6f4030	-0.0009126691
122	0xbb23569d	-0.0024923452
123	0x3c19a68a	0.009378085
124	0xbbb33543	-0.005468996
125	0x3b9b6006	0.0047416715
126	0xb962b757	-0.00021621339
127	0xbd7c9bc0	-0.061671972
128	0xbaeac70c	-0.0017912104
129	0xbd94772e	-0.07249294
130	0xbb1a872b	-0.0023579102
131	0x3c8d7726	0.017268728
132	0xbb92b8e7	-0.0044776085
133	0x3d7a7277	0.06114432
134	0x3d9266ed	0.07148538
135	0xbcb8dd25	-0.022566387
136	0x3dafa418	0.0857622
137	0xbc1001ad	-0.008789462
138	0x3b7cca08	0.0038572568
139	0x3ccdd16c	0.025124274
140	0x3c64411a	0.013931537
141	0xbc15ed8f	-0.009150877
142	0xbbd47a05	-0.0064842724
143	0xbc564afa	-0.013079399
144	0xbbbee995	-0.005826185
145	0xbb12b1f8	-0.002238391
146	0x3bb684eb	0.0055700443
147	0x3d3ae85d	0.045631755
148	0xbd20b911	-0.039238993
149	0xba41d41e	-0.00073939736
150	0xbd19b919	-0.03753004
151	0xba9efa2b	-0.0012128999
152	0xbb95a678	-0.0045669638
153	0xbaa17543	-0.0012318272
154	0xbb8582b8	-0.004074421
155	0xbad6e597	-0.0016395327
156	0xbb60cca7	-0.003430167
157	0x3c73ef9e	0.014888672
158	0x3c49ea3e	0.012323914
159	0x3e9120ea	0.28345424
160	0x3bfdbae4	0.0077432264
161	0xbc7b0745	-0.015321557
162	0x3d633110	0.05546671
163	0x3a060e9d	0.0005113872
164	0xba946b35	-0.0011323454
165	0xbb0e9d30	-0.0021761172
166	0x3e8cf4fa	0.27530652
167	0xbb237d0d	-0.0024946362
168	0x3cca91af	0.02472767
169	0x3d0b9a7d	0.03408288
170	0xbb699ddd	-0.0035647072
171	0x3c463d28	0.012099542
172	0xbc08d13c	-0.008350667
173	0xbb106043	-0.0022030033
174	0x3b01aed9	0.0019788055
175	0xbd1f9106	-0.038956665
176	0xbd4a78fa	-0.04943178
177	0xbd03e897	-0.032204237
178	0xb9a8c78a	-0.00032192125
179	0x3b9382fb	0.004501698
180	0xbb723f89	-0.003696414
181	0xbc9b5a73	-0.018964028
182	0xbc99df43	-0.018783217
183	0xbc4698b5	-0.012121369
184	0xbcb3f0d9	-0.021965431
185	0xbbfec0ac	-0.007774433
186	0x3b230e36	0.0024880297
187	0x3c1a2914	0.009409208
188	0xbd500d42	-0.050793894
189	0x3e16b5ca	0.14717785
190	0x3a06f161	0.00051476626
191	0xbbdce29e	-0.006740882
192	0xbbb86ee7	-0.005628455
193	0xbba4d063	-0.0050297244
194	0xbc5463b2	-0.012963222
195	0x3d64f789	0.05590013
196	0x3dd9e80c	0.106399626
197	0xbbada76a	-0.0052994983
198	0x3cf41c2c	0.02979859
199	0xbb0eb594	-0.002177571
200	0xbc25353a	-0.010083491
201	0x3d3dbc9c	0.04632245
202	0xbcba0c48	-0.022710934
203	0x3d379121	0.04481614
204	0xbc08191c	-0.008306768
205	0xbddec720	-0.10877824
206	0xbc31da89	-0.0108553255
207	0x3ef03931	0.46918634
208	0xbca4ae64	-0.020102687
209	0xbd827168	-0.06369287
210	0x3b7bc358	0.0038415994
211	0xbb2f0bac	-0.0026709838
212	0x3ca5b15f	0.020226179
213	0x3c61ab9d	0.013773826
214	0xbbe3b3d2	-0.0069489265
215	0xbbd8c532	-0.0066153044
216	0xbc3052f2	-0.010761963
217	0xbccc8c80	-0.02496934
218	0x3c7df4ed	0.015500289
219	0xbb8fd343	-0.004389198
220	0xbc3a69dc	-0.011377778
221	0x3ca20431	0.01977739
222	0x3d88da88	0.066823065
223	0x3cb4a935	0.02205334
224	0x3af865b9	0.0018951214
225	0xbb756fe8	-0.0037450735
226	0xbbf02917	-0.007329117
227	0xbaca0a85	-0.0015414512
228	0xbc2baabb	-0.010477717
229	0xbc8a02f0	-0.016847104
230	0x3b8c19f2	0.004275554
231	0x39920bb1	0.00027856
232	0xbcba5c41	-0.022749068
233	0x3d24c453	0.040226292
234	0xba37b10a	-0.0007007277
235	0x3c8492ca	0.016183276
236	0xbd5a0a95	-0.053232748
237	0x3a4b7fcc	0.00077628787
238	0x3c32a153	0.0109027205
239	0xbc30c26b	-0.01078854
240	0xbb3820d0	-0.002809573
241	0x3a9df6fd	0.0012051758
242	0xbc9f82e8	-0.0194716
243	0xbce679fe	-0.028134342
244	0x3c7b2846	0.015329426
245	0x3c04293e	0.0080664735
246	0x3bd95dab	0.0066334805
247	0x3ce21b6c	0.027600966
248	0xbda8c088	-0.082398474
249	0x3af240c3	0.0018482435
250	0x3ae7308c	0.001763837
251	0xbd3df0ba	-0.046372153
252	0xbc3eb3ba	-0.01163953
253	0x3a8aa1cc	0.0010576784
254	0xbbaff840	-0.00537017
255	0x3ba317a0	0.0049771816

bn.weight f4 [24]
0	0x3dcc4a05	0.099750556
1	0x3e12cbe4	0.1433559
2	0x3ca667d6	0.020313185
3	0xbd0b268d	-0.03397231
4	0x3ef2d46e	0.47427696
5	0x3e8ac2a9	0.2710164
6	0x3da4ebc1	0.08052779
7	0xbd99c167	-0.07507592
8	0x3d018bf9	0.03162763
9	0xbce3a3c6	-0.027788054
10	0x3d00a4fc	0.03140734
11	0x3c6f6fec	0.014614087
12	0xbd023951	-0.031792942
13	0x3e427b49	0.18992342
14	0x3de5bd49	0.11217744
15	0xbdb6dfd7	-0.08929413
16	0x3e66efa2	0.2255235
17	0x3e43c8f0	0.1911962
18	0x3c9f3f13	0.019439256
19	0x3b949ddb	0.0045354194
20	0x3f21c658	0.63193274
21	0x3ecc5285	0.39906707
22	0x3e0c28b8	0.13687408
23	0x3e6b75bb	0.2299413

bn.bias f4 [24]
0	0x3dc4ea86	0.09615044
1	0xbc618d10	-0.013766542
2	0xbccd7d4d	-0.025084162
3	0xbc9b4037	-0.018951518
4	0x3ec5fb66	0.38668364
5	0x3df60c19	0.12014026
6	0xbcb92cdd	-0.0226044
7	0x3dd59375	0.10428516
8	0x3ce977b1	0.028499456
9	0xbb5022d1	-0.0031759033
10	0x3bb106c5	0.0054024183
11	0x3ccbcf03	0.024878984
12	0x3b890a01	0.0041821008
13	0x3ea56e3b	0.32310662
14	0x3cbed5d2	0.023295317
15	0x3cc519d4	0.024060167
16	0xbd87f259	-0.06638021
17	0xbdcfb9da	-0.1014287
18	0x3c75cf84	0.015003089
19	0xbcfd2e97	-0.030906005
20	0x3f175bf2	0.5912467
21	0x3f0d93ae	0.55303466
22	0xbc8df157	-0.017326994
23	0xbddea673	-0.108715914

bn.running_mean f4 [24]
0	0xc10840e2	-8.515841
1	0xbf43608c	-0.76319194
2	0x3fa8ca36	1.318671
3	0x3c9197f0	0.017772645
4	0xbdb824ae	-0.08991371
5	0x407c1c3f	3.939224
6	0x3fa8ca36	1.318671
7	0x3c9197f0	0.017772645
8	0xc10ae016	-8.6797085
9	0xbf459f1a	-0.77195895
10	0x3f78c0f8	0.97169447
11	0x3dc829d6	0.097736046
12	0xbcaf036c	-0.021363936
13	0x407d52b0	3.9581718
14	0x3f78c0f8	0.97169447
15	0x3dc829d6	0.097736046
16	0xc10c3362	-8.762545
17	0xbf43b215	-0.76443607
18	0x3fb4cb41	1.4124528
19	0x3e324462	0.17408898
20	0xbb7abefd	-0.003826081
21	0x407b7272	3.9288602
22	0x3fb4cb41	1.4124528
23	0x3e324462	0.17408898

bn.running_var f4 [24]
0	0x413128e4	11.072483
1	0x3f8a3b89	1.0799419
2	0x43a51c49	330.22098
3	0x4160834c	14.032055
4	0x41e8b206	29.086926
5	0x402bd062	2.6845937
6	0x43a51c49	330.22098
7	0x4160834c	14.032055
8	0x41220667	10.126563
9	0x3f8bc38f	1.0919055
10	0x43a8354a	336.41632
11	0x4158626a	13.524027
12	0x41efcd72	29.975315
13	0x402a8b9e	2.6647716
14	0x43a8354a	336.41632
15	0x4158626a	13.524027
16	0x41194f66	9.581884
17	0x3f8d58cf	1.1042727
18	0x43b042cb	352.52182
19	0x41538621	13.220246
20	0x41f4a1ff	30.5791
21	0x4031ce87	2.7782304
22	0x43b042cb	352.52182
23	0x41538621	13.220246
